app/src/main/ml/model_esc50.tflite (tflite, 461964 bytes, 12 tensors)

sequential_8/conv2d_34/BiasAdd/ReadVariableOp f4 [40]
000000 29 33 9d b9 f4 70 c1 3a 6e f1 d5 ba d5 9b e2 ba
       -0.0002998349 0.0014758394 -0.0016322562 -0.0017288873
000010 ab 21 d5 bb 97 09 13 ba 71 80 ae 3a 4d a6 1e bb
       -0.0065042577 -0.0005609034 0.0013313425 -0.002420801
000020 9e a3 91 bb dd 78 5d bb ae 8a 62 ba 7f cd e5 ba
       -0.0044445535 -0.0033793964 -0.00086418807 -0.0017532556
000030 0d f7 cf 3a 77 ff cd ba e1 1e a7 ba 78 5f 08 ba
       0.0015866474 -0.0015716393 -0.0012750291 -0.0005202214
000040 15 48 97 ba 4c 42 c2 3a 9d fa 25 3b 35 4d 0b bb
       -0.0011541868 0.0014820783 0.002532638 -0.0021255736
000050 00 5d e6 38 18 82 58 b9 52 e6 e9 b7 20 38 b6 ba
       0.00010984577 -0.00020647829 -2.7883016e-05 -0.0013902225
000060 a9 59 cf ba 1f 9c 0b bb 9e 1b b9 ba a7 c7 c7 ba
       -0.0015819567 -0.0021302772 -0.001412261 -0.0015241996
000070 8c dc 8b bb 47 cd c0 ba d5 b9 10 3b 17 54 0e 3a
       -0.0042682346 -0.0014709615 0.002208342 0.00054294005
000080 44 ee 0d 3b 13 7b 7c ba 0e 4f b2 bb 19 33 c3 39
       0.002165691 -0.00096313766 -0.005441553 0.0003723137
000090 c7 69 61 bb fd f7 83 3a a2 a7 6f 3a 18 61 6e 3b
       -0.0034395324 0.0010068413 0.00091421057 0.003637379

sequential_8/conv2d_35/BiasAdd/ReadVariableOp f4 [40]
000000 79 2a 38 bc eb 92 fd ba 6b 66 91 bc 3a 62 d0 3b
       -0.011240595 -0.0019346153 -0.017749032 0.006359366
000010 06 54 4f bc a0 fb 80 bc 01 c1 bc bb 54 3e 9b bc
       -0.01265431 -0.015744984 -0.0057603125 -0.018950619
000020 44 b0 8e 3b 31 a5 b5 bb 8c 4d c1 bc f2 9b 31 bc
       0.0043545086 -0.005543374 -0.023596548 -0.010840403
000030 21 2d c6 bb 93 3e 70 bb c5 68 3a bc b3 a2 3b bc
       -0.0060478603 -0.003665839 -0.011377518 -0.011452365
000040 05 08 1f bc 04 e0 9c bc e7 34 91 bc d5 ad 1c 3a
       -0.009706502 -0.019149788 -0.017725421 0.0005976831
000050 78 3a aa bb 93 b5 76 bc 40 f0 24 bb d1 aa fa bb
       -0.0051949583 -0.015057939 -0.0025167614 -0.0076497574
000060 97 7e a9 3b 24 2c 75 3b 6a a4 8d 3b ff 8d 1e bb
       0.0051725614 0.0037410343 0.004322578 -0.0024193523
000070 76 a8 3b bc 47 8d f7 bc 97 a3 a5 bb aa 86 4a 3b
       -0.011453738 -0.030218733 -0.005054902 0.003090302
000080 da 8a 9b 3b 32 39 fd bb c9 c9 86 bb 11 af bb bc
       0.004746777 -0.0077277655 -0.00411341 -0.022910627
000090 a2 e1 f7 bb 05 0c b9 bc d9 c4 b0 3b f8 71 7f bc
       -0.0075647393 -0.02258874 0.00539456 -0.015591137

sequential_8/conv2d_36/BiasAdd/ReadVariableOp f4 [50]
000000 d3 dc 1e 3d 59 0e a1 bc c6 57 ca bc 97 07 99 3b
       0.038784813 -0.019660162 -0.024700057 0.0046700942
000010 50 09 87 3b 9c f7 57 bc 07 31 d2 bb f4 25 76 3c
       0.004120983 -0.013181593 -0.006414536 0.015023697
000020 e3 e9 0f bc 35 1d ec bc 6e fd 52 bd 21 a4 77 3d
       -0.00878379 -0.02882252 -0.05151122 0.06045926
000030 f4 b4 4f bd e8 2c ba 3d ac 55 e3 3c b6 ce 43 bc
       -0.05070968 0.090905964 0.027750812 -0.011951139
000040 96 26 fb 3b 97 ec 37 bd 7e 56 06 bc 19 4e 3b bd
       0.007664512 -0.044903364 -0.008199332 -0.045728777
000050 16 bd 53 3d 96 f5 61 3d f5 41 4e bc 28 d6 ab bb
       0.051694 0.05516585 -0.012588968 -0.0052440353
000060 4e 8d 1c 3d c4 0d 6c bc 35 f5 11 3c 75 74 d3 bb
       0.038220696 -0.014407579 0.00890856 -0.0064530917
000070 a8 ba 44 39 a9 1a 63 3d 46 46 7e bc 01 a0 a8 bb
       0.00018761551 0.055445347 -0.015519684 -0.005146027
000080 2a 03 cb ba 80 1c 27 bd 2d 4b 80 3c af 60 85 bc
       -0.0015488614 -0.040798664 0.015660847 -0.016281454
000090 ca de d9 bc b3 8d 4c bd b0 a0 6d 3c 39 d7 ac 3d
       -0.026595492 -0.049939822 0.014503643 0.08439488
0000a0 7a 57 dd bd 7c 52 8e bb 2b 2c 81 3d b1 5f 19 bd
       -0.108077005 -0.004343329 0.063072525 -0.037444774
0000b0 1b 3a f0 3c d4 72 c3 bc 51 63 29 3d 30 5a d4 3c
       0.029324582 -0.023858465 0.04135448 0.025921911
0000c0 2e 72 9c bc dc dc 27 3c
       -0.019097414 0.010245528

sequential_8/conv2d_37/BiasAdd/ReadVariableOp f4 [50]
000000 af 8c 52 39 0b 31 40 bc 32 a9 c2 bd bc eb f2 3c
       0.0002007957 -0.011730443 -0.09504928 0.029653423
000010 11 db dd bd 05 a0 d8 3c 4f 0d ac 3d c9 e4 b9 3c
       -0.10832799 0.02644349 0.08400976 0.022692101
000020 f7 66 12 3d b8 c1 e6 bc 5b f2 85 bd 57 d3 ea bd
       0.035742726 -0.028168544 -0.06540366 -0.11466091
000030 a1 a4 9e bd 03 6a 01 3a 48 7b b1 bc 85 76 ae bd
       -0.07746244 0.00049367564 -0.02166523 -0.085186996
000040 58 d6 6b bd 16 d4 ae bc da 9c a0 bd e7 d6 7d bc
       -0.05757746 -0.021341365 -0.07842417 -0.015493131
000050 49 00 a6 bd 0b b7 2e be 21 d6 b7 bd ed 10 76 bc
       -0.08105523 -0.17062013 -0.08976389 -0.015018684
000060 fb cb b8 bd d2 71 81 3c 93 48 89 bd 16 66 96 bd
       -0.09023281 0.015801344 -0.067032956 -0.0734369
000070 fe c0 f3 bd ce fe 82 bc 7e 18 ab bc b8 93 ab bc
       -0.11902045 -0.015990641 -0.020885702 -0.020944461
000080 ee b3 c5 bd 47 c8 6e bb 97 b8 94 3b 46 70 bf 3c
       -0.096534595 -0.0036435293 0.0045386064 0.023368966
000090 38 1f 54 3c 1d ab db bd f2 22 b2 bd 71 d9 1c bb
       0.012946896 -0.10725997 -0.086980715 -0.0023933316
0000a0 4e a2 e0 bb dc 3b c7 bd ff e1 ff bb ed 7d 0c 3d
       -0.0068552857 -0.09728214 -0.0078089233 0.03429978
0000b0 e5 81 09 be 18 8b 22 bd aa ab c5 bd 38 26 57 3c
       -0.13428457 -0.03968343 -0.09651883 0.013131671
0000c0 be f3 60 3a eb 80 12 bd
       0.00085812423 -0.035767477

sequential_8/conv2d_38/BiasAdd/ReadVariableOp f4 [60]
000000 41 47 8b bd 37 02 4b bd 45 42 8a 3d 48 47 fe bb
       -0.068007 -0.04956266 0.06750921 -0.007759962
000010 c0 22 8d bd a4 1d 05 be 28 d6 92 bd 67 4e 2d bd
       -0.06891394 -0.12999588 -0.07169753 -0.0423111
000020 6c 00 a3 bd c3 c4 80 bd 0f 6f 96 bd d4 fe a4 bd
       -0.07959065 -0.06287529 -0.073454015 -0.08056417
000030 63 d2 e8 bc a5 84 48 bc 74 dc fa 3c 2b 6f 11 3c
       -0.028420633 -0.012238656 0.030622698 0.008876602
000040 d8 fd 0a bc 91 98 f4 bd e9 2e 3c bd a5 5e f2 bc
       -0.008483373 -0.11943162 -0.045943175 -0.029586146
000050 12 a4 bc bd 5d 94 0e bd d3 0b a6 3b 69 a9 08 bd
       -0.092109814 -0.03480946 0.0050673275 -0.033364687
000060 5d b8 d7 bd 67 5b 54 3c 63 87 c2 bd 2e 8d 78 bd
       -0.105332114 0.012961245 -0.09498479 -0.060681514
000070 3e 8e a6 bd ce 4a ce bd d7 47 93 bd 61 3f 7b bc
       -0.08132599 -0.100728616 -0.07191437 -0.015334935
000080 3d f2 66 bd c4 ac 81 bd dc a3 c9 3c a0 a8 c2 bd
       -0.05638336 -0.063317806 0.024614267 -0.09504819
000090 2d 4b 44 bb bf 88 dc 3c 06 cc c0 bd c4 09 ab bd
       -0.0029952035 0.026920674 -0.094139144 -0.08351472
0000a0 47 90 9e 3c f0 39 32 bd 4c 5e 04 be 6b 6c 85 bd
       0.019355906 -0.043512285 -0.12926596 -0.0651482
0000b0 0f d6 26 bd 5d 61 46 bc 08 6e 89 bd 85 c0 8c 3c
       -0.040731486 -0.012108174 -0.0671044 0.017181644
0000c0 55 ca 6b 3c 16 13 b1 3c 80 13 7e 3b ec c2 86 bd
       0.014391501 0.021615546 0.0038768947 -0.06580147
0000d0 c4 07 6d bd c0 65 f4 3c 11 cb 0a be 4b 83 ec 3c
       -0.057868734 0.029833674 -0.13554026 0.0288712
0000e0 16 91 44 bd b9 3b 40 bd c4 0b 94 bd ca 1b e5 bd
       -0.047989927 -0.046931956 -0.072288066 -0.11186941

sequential_8/conv2d_34/Conv2D f4 [40, 3, 4, 1]
000000 90 9d 85 bd 19 35 9a be 21 f7 d3 bd 7e 37 16 3e
       -0.06524193 -0.30118635 -0.103498705 0.14669606
000010 00 55 04 3e bf 1c dd bd 61 55 29 3e db 65 94 3e
       0.1292305 -0.107964985 0.16536476 0.2898396
000020 bd 74 43 bd be 17 22 be 6f b7 f4 3c b3 08 9f bd
       -0.047718752 -0.1582937 0.029872624 -0.07765331
000030 71 aa 55 3a 7a d9 42 be 68 a6 5a be 8c 31 85 be
       0.0008150703 -0.19028273 -0.21352541 -0.26014364
000040 6d 85 70 3e c0 52 23 be 5e bf 84 3d 53 0c 3b bd
       0.23488398 -0.15949535 0.06481813 -0.04566605
000050 ec 86 88 3e 10 8e 54 bc 0b cd 75 3d 37 06 27 bc
       0.26665437 -0.012973323 0.060009997 -0.010194353
000060 b4 89 9d 3e 2a cd 78 3e dc 87 d4 3c c6 12 5c be
       0.30769122 0.24297014 0.025943689 -0.21491536
000070 c6 02 8f 3d 10 fa 6a be 8d 8c 80 be da 52 9e be
       0.06982951 -0.22946954 -0.25107232 -0.30922586
000080 35 e2 3a 3e af a0 c9 3d cb 3b 9f 3d 2e db fb bd
       0.18250354 0.09845101 0.077750765 -0.122976646
000090 38 31 a4 3e f3 47 e7 3c be 17 22 bc 57 75 11 3e
       0.320688 0.02823255 -0.009893356 0.14204918
0000a0 ee c0 ab 3d cb 21 c2 be 24 d5 c4 be 7a 63 8e be
       0.08386408 -0.37916407 -0.38443863 -0.2781027
0000b0 71 9c b2 3e 7a ab 99 bd e1 2d 14 3c da ae a9 3d
       0.3488498 -0.0750341 0.0090441415 0.082853034
0000c0 6d 8d 85 3e 0d 59 9e 3e 9f 7e ba 3e 47 4d 4b 3e
       0.26084462 0.30927315 0.3642473 0.19853698
0000d0 90 e1 f2 bd 06 6b c4 bd fd 6a 36 3e 7f e0 a4 bd
       -0.11859429 -0.095907256 0.1781425 -0.08050632
0000e0 18 aa 72 3d ea 76 9a 3d 70 f2 15 3e 74 dd a3 3c
       0.059244245 0.07542212 0.14643264 0.020003058
0000f0 a7 f4 9b be 93 54 a8 be 4d 4d 25 be 7d 9c 40 3b
       -0.30460092 -0.32877025 -0.16142769 0.002939015
000100 73 3b 96 3d 01 c2 e5 3d 1a 23 1a bb 0b 26 9f 3e
       0.07335558 0.11218644 -0.0023519457 0.31083712
000110 2f 9e ad bd 57 09 2f bd 44 6f dd 3c a2 e6 38 3e
       -0.08477437 -0.042733517 0.027030595 0.1805673
000120 07 f8 a4 be a5 ad 1c be 3e 2d 91 be 7d b1 22 bd
       -0.3222048 -0.15300615 -0.2835483 -0.039720047
000130 d9 1b 39 3e 3c b1 bd 3e 63 e6 3e bc b8 0d 90 3e
       0.1807703 0.37049282 -0.011651608 0.28135467
000140 d9 a0 f9 bb db 52 64 3d 4e e6 2a be bd aa 55 3c
       -0.0076180515 0.05574308 -0.16689417 0.013041195
000150 f4 61 c5 3c ae a0 ee 3e cd fd a2 3e 07 0d 7d 3e
       0.02409456 0.46606964 0.3183426 0.24712001
000160 b3 78 52 be a4 a2 6c 3d 95 07 31 be ad 8f b6 bb
       -0.20553856 0.057772294 -0.17288049 -0.0055713267
000170 b0 69 67 be 91 cc 5d 3d 92 98 06 bd 29 87 fe bd
       -0.2259891 0.054150168 -0.032860346 -0.124281235
000180 89 21 9f 3e 0f 1d 95 3e 41 b7 c4 3e 46 60 99 3e
       0.31080273 0.29123732 0.38421062 0.29956263
000190 0c 34 28 be b4 b8 4e be eb c0 17 be 19 03 14 be
       -0.16426104 -0.20187646 -0.14819686 -0.14454307
0001a0 de 1a 24 be 31 fb 47 be f5 2b e1 3c ea 1e 80 bd
       -0.16025874 -0.19529416 0.02748678 -0.062558964
0001b0 40 5d ac 3e 57 f9 d4 3e 6f 2c 13 3e be 7e 5d 3e
       0.33664894 0.4159648 0.14372419 0.2163038
0001c0 c8 2d 13 bc c1 d6 ad 3d 22 9e 5a be b4 d4 6d be
       -0.008983083 0.08488227 -0.21349385 -0.23225671
0001d0 51 99 a4 3a ff 13 fa bd 52 b9 10 be 46 8c 30 be
       0.0012557899 -0.12210845 -0.14133194 -0.1724101
0001e0 e5 ee 12 3e 90 f3 a4 bd ce e4 50 be 5a f8 79 be
       0.14348944 -0.08054268 -0.20399782 -0.24411145
0001f0 9f 9b 23 3e 90 04 13 be 64 e7 10 be 90 50 7f be
       0.15977333 -0.14357209 -0.14150769 -0.24933076
000200 57 64 94 3e 2d 9e 43 3d 54 8b 16 3e 55 33 82 bc
       0.28982803 0.04775827 0.14701587 -0.015893618
000210 60 55 9a 3e a4 07 ae 3d fa c4 70 3e db 07 2d 3e
       0.3014326 0.08497551 0.2351264 0.16897528
000220 05 d3 a5 bd 73 a8 ca bd c0 1c 4d be e1 62 12 be
       -0.080968894 -0.098954104 -0.20030499 -0.14295532
000230 e9 0d 8a bd de 25 18 be 60 c6 51 3d 08 68 48 3d
       -0.067409344 -0.14858195 0.051214576 0.048927337
000240 33 a8 a7 bc a8 c4 9c 3e 68 b1 83 be 5a b3 49 be
       -0.020465946 0.30618787 -0.25721288 -0.19697323
000250 1d 0f c2 3c e0 75 9f 3e 24 05 64 be 82 dc 95 bc
       0.023688847 0.3114462 -0.22267586 -0.018293623
000260 43 79 e2 3d ba f2 64 3e e7 44 8d be c3 97 85 bd
       0.11058285 0.22358218 -0.2759163 -0.06523087
000270 6f e6 d8 be 36 d5 15 3e 90 1c 67 bd b1 da 1d 3d
       -0.42363307 0.14632115 -0.056423724 0.03853864
000280 21 9a 83 be c1 f8 e4 3e 8c fe 9b 3d 7c 00 48 3e
       -0.2570353 0.44721034 0.0761691 0.19531435
000290 ae d2 b9 be fc 12 42 3e 48 aa 16 be a2 0f a5 3d
       -0.36293548 0.18952554 -0.14713395 0.08059622
0002a0 e8 d0 01 be 00 a9 94 be 49 70 78 3e 5b 99 c3 be
       -0.12677348 -0.29035187 0.24261583 -0.38202938
0002b0 fc 46 b0 3d b3 86 29 be e1 02 91 3e 72 fc 98 be
       0.08607289 -0.1655529 0.2832251 -0.298801
0002c0 d5 d6 42 3d 41 3c a9 3d 6a 55 e2 3e 65 ed da bc
       0.04756816 0.08263446 0.4420579 -0.026724527
0002d0 78 d9 77 be 4e 1f c7 be f1 13 52 bd 27 9a 94 be
       -0.24204051 -0.3889107 -0.05128855 -0.2902386
0002e0 62 75 58 3e 98 cf cf 3c ee 20 30 3e bb c7 f4 3b
       0.21138528 0.025367543 0.17200062 0.007470099
0002f0 6a 24 24 3e 0f 77 a7 bd e5 9d c2 3d c8 06 5b 3d
       0.16029516 -0.081770055 0.09502772 0.053473264
000300 eb b5 35 be dc e6 b6 3e 9d d8 9c be 46 19 d6 bd
       -0.17745177 0.35723007 -0.30634013 -0.10454039
000310 0b 33 82 be db 4e c8 3e 16 53 ca bc cf 09 cd 3c
       -0.25429568 0.39122662 -0.024697822 0.025029091
000320 ff 28 5a be b4 83 ba 3e 58 19 c3 bb 21 59 4f bc
       -0.21304701 0.36428607 -0.005953949 -0.012655527
000330 01 52 c4 3c b1 12 03 bf 3d f5 3c be f1 ec 84 be
       0.023964884 -0.51200396 -0.18452926 -0.25962022
000340 59 c0 b5 3e 0f 06 08 be d5 18 c8 3c db 4d 0b 3e
       0.35498312 -0.13283561 0.024425903 0.13603918
000350 4b af 38 3e 66 1f 49 be 74 9c 21 3e 9e a9 c8 3d
       0.18035619 -0.19640884 0.15782338 0.09797977
000360 d4 34 86 be 73 5b 3b be c1 34 5c be 4f 30 a0 bc
       -0.2621218 -0.18296604 -0.21504499 -0.019554285
000370 23 93 57 3e 9e fd 93 3e d0 ad 20 3e f2 c7 aa 3e
       0.21052222 0.28904432 0.15691304 0.3335567
000380 ce d6 d4 bd e3 91 9a bb 94 13 56 be 57 ec 9c bd
       -0.10392533 -0.004717098 -0.20905906 -0.07662266
000390 fb 27 3e 3e bd 6f 22 3f 13 94 43 3e 2c 9b cf 3d
       0.18569939 0.6345175 0.19099455 0.101370186
0003a0 cf d8 92 be 87 19 e9 3b 4e 42 74 be b3 b3 cf bd
       -0.28681037 0.007113639 -0.23853418 -0.10141697
0003b0 19 e5 29 be a9 4b 3f 3e f7 a2 56 be ba 24 b7 3c
       -0.165913 0.18681206 -0.20960604 0.02235638
0003c0 9b 48 b3 be f8 ef 30 be 51 e0 ef 3c e6 68 36 3d
       -0.3501633 -0.17279041 0.029281767 0.044533633
0003d0 58 9d 97 3d 2b 19 5c 3d 8f 76 7d 3e b8 a0 b0 3e
       0.07403058 0.05373494 0.24752258 0.3449762
0003e0 e7 8e 81 be 0f 21 11 be 4e a0 29 be 30 97 1c 3e
       -0.25304338 -0.14172767 -0.16565058 0.15292048
0003f0 d5 68 6c be 37 b3 5c be 5a cc 3f ba da 5f 00 be
       -0.23086865 -0.2155274 -0.00073165225 -0.12536564

sequential_8/conv2d_35/Conv2D f4 [40, 3, 4, 40]
000000 cf 6a 08 3c 29 b9 04 be bc e1 61 bd c5 4b e9 3c
       0.008326246 -0.12961258 -0.055146918 0.028478513
000010 54 57 2c 3d 33 a1 62 bc 02 ef 02 3a 85 5a f0 3d
       0.04207547 -0.013832378 0.00049947214 0.11736015
000020 0a 4c 17 3e 7c dd c5 3d d5 a4 e3 bd 57 3d cc 3c
       0.147751 0.096613854 -0.111154236 0.024931593
000030 c6 fd d4 bb dc 57 be bc 48 b8 94 bd 92 a2 0d bd
       -0.0064999787 -0.023235254 -0.07261711 -0.034578867
000040 b7 12 d3 bd b2 79 e5 bd 8b 53 0b 3d ac 54 1f 3e
       -0.10306304 -0.11204852 0.03401522 0.15559644
000050 03 9f 6a 3d 5b 1e dd 3c e2 c5 cc bd 89 59 f7 bb
       0.05728055 0.026992014 -0.09998681 -0.007548515
000060 f3 06 98 3d c5 7b 80 bd a3 ac f4 3b fe 0c e4 bd
       0.074232005 -0.06273607 0.007466869 -0.111352906
000070 b9 5a 45 3e 93 d1 18 bd 38 c9 13 3d 16 fa b5 3d
       0.19272889 -0.03730924 0.03608057 0.08885591
000080 c1 59 f9 bd 80 75 38 3d 30 10 dc 3c 11 96 5a bc
       -0.12175322 0.04503393 0.026863188 -0.013341443
000090 f8 fa 31 3e 5c a8 6b bd 35 bd 43 3d 7c dd e6 bc
       0.17380893 -0.057533607 0.047787864 -0.028181784
0000a0 01 df 44 3d f5 94 9a bd f6 62 a4 bd 73 7a 31 bd
       0.048064236 -0.075479425 -0.08026688 -0.043329667
0000b0 ce 60 89 bc c0 0e cc bd b0 36 92 bd c5 f1 e8 3c
       -0.016769793 -0.09963751 -0.07139337 0.028435597
0000c0 f5 67 48 3e d9 4a 4d 3e 0b ce 48 bd ea e3 04 3e
       0.19570906 0.20048083 -0.049024623 0.12977567
0000d0 16 09 7e 3d c4 28 80 3c b6 68 41 be aa 06 0f be
       0.062020384 0.015644439 -0.188876 -0.13967386
0000e0 d5 44 29 bc 1d 9e b4 bd c2 29 a5 ba da 82 70 3b
       -0.010331352 -0.0881922 -0.0012600946 0.0036699087
0000f0 36 11 db 3d b4 fa a2 3d 69 23 c3 bd 61 71 a4 3d
       0.10696642 0.07957974 -0.09528238 0.08029438
000100 ab d2 61 bb 55 74 78 3c 2f 2d 3f bd 9e 53 aa bc
       -0.0034457843 0.0151644545 -0.04667395 -0.020791825
000110 dc 29 19 3e db 63 07 bc dc 4d 88 3c 85 2d 9b 3d
       0.14957374 -0.0082635535 0.016638689 0.075770415
000120 43 42 6c bd e3 e3 2a 3d 92 14 26 3d 54 a5 64 bd
       -0.05768038 0.041721236 0.04054696 -0.05582173
000130 a1 c0 41 3e d7 15 b6 3c 0f 0b 42 bd 09 d1 dd 3c
       0.18921138 0.02222721 -0.047373828 0.027077215
000140 82 31 b7 bc c6 c3 94 bd e0 48 a6 bc c7 eb 5b bd
       -0.022362474 -0.07263903 -0.020298421 -0.05369165
000150 d5 cc 52 bd 1b 69 b7 bd 8b ab 2a bd bb c8 dc 3d
       -0.051464874 -0.08955594 -0.041667502 0.10780474
000160 ac 3f 28 3e 42 cd 6d 3d 30 d4 e3 bd d0 b0 73 3d
       0.16430539 0.058057077 -0.11124456 0.059494793
000170 44 20 9d 3c c4 f6 e8 3c f8 77 23 be f7 1b 84 3b
       0.019180425 0.02843798 -0.15963733 0.004031654
000180 69 36 5b 3d bd 91 a9 bd 26 b8 8c 3d 28 e7 dc 3d
       0.053518686 -0.082797505 0.06871061 0.10786277
000190 4e fb 1f 3d 58 fd 5c 3d d1 c9 58 bb ff 29 18 bd
       0.039058022 0.053952545 -0.0033079276 -0.037149426
0001a0 8c 9d dc bc 2a 44 35 3c 34 71 67 bc 58 f0 a0 bd
       -0.026930593 0.011063615 -0.014126111 -0.07858342
0001b0 0d 07 0b 3e 6d 46 05 3d 18 98 dc 3c 6d 2d f6 3d
       0.13576908 0.032537866 0.026927993 0.12020383
0001c0 27 8a 50 bc 42 61 36 3d fc fb 0e bc b6 28 db bd
       -0.012728251 0.044526346 -0.00872707 -0.10701124
0001d0 22 69 07 bc 0d 7d 38 3c 9d 2d b8 3c 14 ea b6 3d
       -0.008264812 0.011260283 0.022482688 0.089313656
0001e0 c7 6d 1b 3d 61 ca 78 bd 69 0c 6a 3c 6e 35 03 bd
       0.03794649 -0.06073988 0.014285185 -0.032033376
0001f0 e8 9f 3d bd 8f e0 ea 3a d0 66 70 bc d4 68 48 3d
       -0.046295077 0.0017919707 -0.01467295 0.048928097
000200 a5 37 0c 3e 1f f6 30 3d 3a a1 4d bd 43 1d ba ba
       0.13693102 0.04320347 -0.050202586 -0.0014199394
000210 48 d5 1c 3d 99 a2 88 3d f0 ee 47 bd ef 36 88 bd
       0.03828934 0.06671638 -0.048811853 -0.06651103
000220 8f 9b 6b bd 29 78 88 bd 59 d7 62 3d d6 8c 7a bd
       -0.0575214 -0.06663544 0.055381153 -0.061169468
000230 5a 60 0c 3e 50 20 39 3d f5 26 04 bd cb 5d 84 3d
       0.1370863 0.04519683 -0.032263715 0.06463202
000240 0e 73 4d 3d e7 18 bc bc 84 53 e5 3d 32 f2 ab bd
       0.050158553 -0.022961093 0.1119757 -0.083958045
000250 a7 cc 22 3d 77 9c 33 bd 55 da 0a 3d 9c ad a5 3d
       0.039745953 -0.04385039 0.033899624 0.08089754
000260 e9 ca a4 3c d9 4e 36 3c 1e d3 d8 bd 25 9b 16 bd
       0.020116286 0.011127197 -0.105871424 -0.03676905
000270 5a a2 11 3d db 9f e4 bc f1 4b 30 3d 66 1f cd 3d
       0.03555522 -0.027908256 0.043041173 0.100157544
000280 a5 5e 6e bd b3 af 5d 3d 53 01 16 3e 82 4f 29 3e
       -0.05819573 0.054122638 0.14648943 0.16534236
000290 de c7 5c 3c aa 1a 99 3b 70 42 19 bb 7b e4 3c bc
       0.013475386 0.004672368 -0.0023385547 -0.011529083
0002a0 6a 5f 90 3d e2 f3 53 3d dd 6a 16 3e c4 cb 9e bc
       0.07049449 0.051746257 0.14689203 -0.019384272
0002b0 19 f1 86 bc 57 37 02 be e3 80 aa 3d b4 cd 12 bc
       -0.016472386 -0.12716423 0.083253644 -0.008960176
0002c0 5d b9 0d bd d8 f4 26 3c cc 8d b5 bd ac 40 cb 3d
       -0.034600604 0.010190211 -0.08864936 0.099244446
0002d0 11 04 97 bc f9 f3 d3 bd 95 f2 98 3d 10 9a b0 3d
       -0.018434556 -0.103492685 0.07468144 0.08623135
0002e0 32 ec b7 bd fa a0 b2 bd a8 eb b4 bd c3 71 02 3d
       -0.089805976 -0.0872211 -0.0883401 0.031846773
0002f0 3e 27 6e 3d af 2c e8 3d 88 c1 cf bd 4f 58 ba 3d
       0.058142893 0.11336648 -0.10144335 0.09098875
000300 74 af 89 3d 76 0a 11 3d dc d6 b6 bc 85 28 db 3d
       0.06722918 0.035410367 -0.02231925 0.10701088
000310 35 22 0b 3c f4 20 f8 bc 0c 8f 61 bc 66 88 1b 3d
       0.008492042 -0.03028915 -0.013767015 0.037971877
000320 a1 06 53 bc 84 9e 93 3b ab 52 1e 3e c1 f6 2c 3e
       -0.012879998 0.0045049805 0.15461223 0.16891004
000330 ad 08 97 3c ea 9e 78 bd 56 e7 aa bc 4d 14 af 3d
       0.018436754 -0.060698427 -0.020862263 0.08548794
000340 97 8d 2f 3d 3f b1 b5 bd fb 3b 23 3e b3 b8 47 bc
       0.04285964 -0.08871698 0.1594085 -0.012190032
000350 c7 cf 7d 3c 49 3d de bb 8e 37 15 3d 0d e9 6a 3a
       0.0154914325 -0.006782208 0.036429934 0.0008961119
000360 c9 ec 9c bc 09 8d 04 3d 4f 7d ce bd 42 d7 47 3d
       -0.019155877 0.032361064 -0.100824945 0.04878927
000370 54 b0 1d be b1 63 c1 bd 90 fa 64 3d 17 16 b4 3d
       -0.15399295 -0.09442843 0.055903018 0.08793276
000380 c9 2b cf bd d5 e4 b8 bc 2b cc 25 be 1e 56 32 3d
       -0.10115773 -0.022570053 -0.16191165 0.04353916
000390 a1 ff 2b bd fb b8 94 3b 66 d6 94 bd 27 fc a5 3c
       -0.041991834 0.004538653 -0.07267456 0.020261837
0003a0 a2 e7 8c bc 21 2e 03 3e 21 c9 a8 bc 4c a8 ec 3d
       -0.017200295 0.12810566 -0.020603718 0.115555376
0003b0 2d 63 10 bb 3a a4 cb 3d fa 9a 2e bc b9 68 a4 bc
       -0.002203177 0.09943433 -0.0106570665 -0.020069467
0003c0 4d a1 65 3c 35 14 09 3d a3 86 02 3e 13 9d f6 3d
       0.014015508 0.033466537 0.12746672 0.12041678
0003d0 97 94 39 3d f4 f1 ea bd 6e 51 43 bd eb 3e 58 bc
       0.045307722 -0.1147193 -0.04768508 -0.013198595
0003e0 cf 9d 6a bd 41 4b b9 bd ae 17 ff 3c 9a a5 c7 3b
       -0.057279404 -0.09047557 0.031139221 0.0060927393
0003f0 8c 5e c7 bc fc 31 b8 bc 4e 11 20 3d b5 47 91 bc
       -0.024337076 -0.022484772 0.039079003 -0.017734388

sequential_8/conv2d_36/Conv2D f4 [50, 3, 4, 40]
000000 9f 32 a8 3c db 4e 0e 3a 31 c6 ee bd 79 e0 ec 3d
       0.02053195 0.00054286205 -0.11658896 0.11566252
000010 a6 94 08 be fa e6 bb bd 51 fa 69 bd d0 82 91 bc
       -0.13337955 -0.09174915 -0.057123486 -0.017762572
000020 73 74 ad bd 71 52 11 bc cc 82 0f be ce c5 12 be
       -0.084694766 -0.008869753 -0.14014739 -0.14333269
000030 19 fd 7d 3d ae 4d 00 be 35 59 14 ba ba de c2 bd
       0.06200895 -0.12529632 -0.0005659045 -0.09515138
000040 ac 5d 16 bd e7 d0 2b be f4 94 c4 3b 0c ff 26 be
       -0.036710426 -0.16778909 0.005999202 -0.1630823
000050 af 18 c9 bc 20 a2 39 bc 6d 91 98 be 68 a1 7e 3d
       -0.024547903 -0.0113301575 -0.2979845 0.062165648
000060 1f 82 1e bd f1 15 6e 3c 50 35 82 bc 6c 71 5c bd
       -0.038698312 0.014531598 -0.015894562 -0.053819105
000070 60 55 0f 3d 0f b0 0f be 97 83 c9 3c 0a 2b a5 bd
       0.03499353 -0.14032005 0.02459888 -0.0806485
000080 22 cc 50 3d 08 3f 40 bd 78 bd e4 bc f1 4c 8a 3d
       0.050975926 -0.04693511 -0.027922377 0.06752957
000090 ec 52 57 bd 76 75 f3 bd ff af 7b 3c 3f 72 f4 bd
       -0.052569315 -0.11887638 0.015361785 -0.11935853
0000a0 41 c7 d4 bd 39 3c 00 bd 51 9e ff 3c 8e 11 c3 3c
       -0.10389567 -0.031307433 0.03120342 0.023812082
0000b0 53 02 07 be 46 57 4f bd 2f 90 b9 bc 79 83 82 bd
       -0.1318448 -0.05062034 -0.02265176 -0.06372733
0000c0 5a a0 98 38 08 b4 37 be 95 1e 73 be 21 b9 23 3d
       7.2777926e-05 -0.1793977 -0.23742135 0.039971475
0000d0 61 22 35 3d 71 d1 49 be 85 14 3a bd e9 5b b8 3b
       0.04422224 -0.19708802 -0.045429725 0.005626191
0000e0 b8 57 29 3d a0 82 72 bd 08 19 28 bc 08 b7 79 be
       0.04134342 -0.059206605 -0.010259874 -0.24386227
0000f0 e5 3a 81 bc e0 a1 8f bc 1a b7 80 be bd 33 29 3d
       -0.015775153 -0.017533243 -0.25139695 0.041309107
000100 7d b2 51 bd 5f 96 88 bc 45 30 64 3c 73 a8 81 3d
       -0.05119561 -0.016673265 0.013927524 0.06330957
000110 72 17 0b bd 37 03 b7 bd a8 3d 96 3d 5b e5 66 bd
       -0.033957906 -0.0893616 0.07335979 -0.056371074
000120 50 f0 98 3d 07 37 97 3c da 95 a7 bd b9 71 0b bc
       0.07467711 0.018458856 -0.08182879 -0.008511
000130 94 64 ae bd 33 80 0a be a7 34 a4 3c c3 d8 65 bd
       -0.085152775 -0.13525467 0.020044638 -0.056114923
000140 b8 0e 03 3c f6 d6 0a be 82 11 60 ba 5c ae a1 3c
       0.007999115 -0.13558564 -0.0008547531 0.019736461
000150 30 d0 b8 bc 22 0f a8 bd 2a f1 d3 bd af 65 50 3d
       -0.022560209 -0.08206011 -0.10348733 0.050878223
000160 52 56 ee bc f6 31 e4 bd a4 a3 63 be 61 3e 08 3c
       -0.029093895 -0.11142342 -0.22230393 0.008315654
000170 61 fa 56 bd 40 f0 14 be 35 80 04 3d 91 65 8f 3d
       -0.052484874 -0.14544773 0.03234883 0.07001794
000180 18 b9 9f 3d 2d 70 5d bd 5c 22 5a bd 9c ae 14 bd
       0.07798976 -0.054062057 -0.053255424 -0.036299333
000190 a0 71 2b 3d 35 95 d0 bd 95 a1 14 be 6b 3f 22 3c
       0.041856408 -0.10184709 -0.14514764 0.009902815
0001a0 03 68 f2 bd 66 33 94 bd bb 4e 31 bc 8e f7 6f bd
       -0.11836245 -0.07236366 -0.010821993 -0.058585696
0001b0 64 65 80 bc ce ba 4c bd 9b d6 04 3d 42 35 29 be
       -0.015673347 -0.04998284 0.032431226 -0.16524222
0001c0 7f 6d 42 3d a3 c7 3a 3d ca 75 80 3c 9f 46 55 bb
       0.047467705 0.045600545 0.015681166 -0.0032543314
0001d0 6c 3e db 3c 03 34 ac bd 24 1a 84 3d d3 38 94 bc
       0.026763164 -0.08408358 0.064502984 -0.018093502
0001e0 b3 ec 5f bd 3c 17 58 bd fe 5f 5e 3a 69 51 45 3d
       -0.054669093 -0.052756533 0.0008482932 0.048173342
0001f0 6b 15 44 bd 65 05 2d 3d 7b df 00 be cc ed 11 3b
       -0.04787199 0.042241473 -0.12585251 0.0022266982
000200 69 1c a7 3d e4 ad 08 3d 87 b0 be bd 6e 1c 90 3c
       0.08159716 0.03336896 -0.09311014 0.017591681
000210 c5 b6 35 3c 66 a0 a7 bd aa 94 3f ba b1 e0 58 3d
       0.011090939 -0.081848904 -0.00073082244 0.052948657
000220 1f 1b 6a 3d 06 13 06 3d d7 e2 83 bd 2d 92 40 3e
       0.05715477 0.032732986 -0.06439751 0.18805762
000230 40 8f 82 bd 12 29 7e bd 39 ea e9 3d ab d4 3b 3d
       -0.06374979 -0.062050886 0.114216276 0.045857113
000240 c6 af 16 bd fe 65 dd bd 68 1d ab 3d 86 d1 c5 bb
       -0.036788724 -0.10810469 0.08355218 -0.00603694
000250 71 b1 90 bc 1d 17 9c bd f0 18 0d 3e 02 38 53 be
       -0.017662736 -0.07621596 0.13779044 -0.20626834
000260 47 e9 ff bc 2c 69 78 bc 0d 67 c5 3d d8 7c b5 3c
       -0.031239165 -0.015161794 0.09638796 0.022154257
000270 ff 08 ee 3d 48 36 e1 3d 11 f0 73 3d 61 29 20 3d
       0.116228096 0.109966815 0.059555117 0.039101962
000280 81 ec b3 bd 85 ce 02 3d 69 f9 bf bd ec 6e ec 3c
       -0.08785344 0.031935234 -0.09373743 0.028861485
000290 2d dd 8f bd fb a0 0f be e0 ae 94 3d 14 15 9d bd
       -0.07024608 -0.14026253 0.07259917 -0.07670036
0002a0 ad d4 6f bc 83 e3 0e bd 6d 14 1a be 08 03 ff bd
       -0.014638108 -0.03488494 -0.15046854 -0.1245175
0002b0 1f ce 31 3d 05 cb 11 bd 77 5b 50 bd 45 f8 c4 bd
       0.043409463 -0.035594005 -0.050868478 -0.09617666
0002c0 e0 51 0b be ac 25 f9 bd 2c b0 9a bc d9 96 54 be
       -0.13605452 -0.121653885 -0.018882833 -0.20760669
0002d0 75 23 9b bd 3b f2 02 bd 79 f0 67 be e0 64 2e bc
       -0.07575122 -0.03196929 -0.22650327 -0.010644168
0002e0 63 59 c5 bd 83 9e 84 3c df ce ab bd 22 e1 8d 3d
       -0.0963619 0.016188866 -0.08389067 0.06927706
0002f0 f5 e5 8f bd 74 81 b7 bd 83 70 96 bb 6d 63 9e 3d
       -0.07026283 -0.08960238 -0.004591049 0.07733808
000300 c8 94 67 3d ce dd 88 bd 10 99 2e bd 71 5f 78 3c
       0.056538373 -0.06682931 -0.04262644 0.015159474
000310 c9 17 39 be bf 1a 6e be 42 51 46 bc 71 e8 e3 bd
       -0.1807548 -0.2325239 -0.012104334 -0.11128319
000320 01 70 af bd 85 59 09 bd fa 10 b3 3c 60 18 f8 3b
       -0.08566285 -0.033532638 0.021858681 0.007571265
000330 7f 62 62 3d e7 45 97 bd 4c fd 20 3d 68 b8 4c bc
       0.055269714 -0.0738638 0.039304063 -0.012495138
000340 6d 24 f3 bc d2 03 4c be ec 56 54 be 93 3f 37 3c
       -0.029680455 -0.19923332 -0.20736283 0.011184591
000350 0b d0 33 bc 48 16 51 be 8e 5a ea ba 46 2b e8 bd
       -0.010974894 -0.20418656 -0.0017879771 -0.11336379
000360 ba da 27 3c db 61 17 be 70 8b 5d bd 7a 14 25 be
       0.01024502 -0.14783423 -0.054088056 -0.16121092
000370 a4 bc 27 bd 0a 40 75 3c 31 ab 3c be 41 4a 08 bd
       -0.040951386 0.014968881 -0.1842468 -0.03327394
000380 3f 5f 3d bd 59 b0 ad 3d c8 cd fa ba 6e dc 6a 3d
       -0.046233412 0.08480901 -0.0019134814 0.057339124
000390 63 81 55 bd a4 23 9c bd 55 2b 01 bd 59 2f 4e 3d
       -0.052125346 -0.076239854 -0.031535465 0.050338123
0003a0 6a a1 7c 3d b4 60 2e bc 75 f0 ee 3c 20 39 19 3d
       0.061677374 -0.010643173 0.029167393 0.037407994
0003b0 52 bb 03 be 3a 92 19 be 98 6e c5 bd 0e 25 e3 bd
       -0.12864426 -0.14997187 -0.09640235 -0.11091052
0003c0 09 76 dc bc f9 05 b9 3c 7e dd 45 bd 16 c9 ad bb
       -0.026911752 0.022585856 -0.048306935 -0.0053035123
0003d0 61 63 0e 3c 7e a5 90 bd 3e eb c9 bd 76 6a 41 ba
       0.008690686 -0.07062815 -0.09859322 -0.00073782296
0003e0 b3 0c 06 bd 81 26 99 bd 62 7e 16 be cd 8f 86 bc
       -0.032726955 -0.07478047 -0.14696649 -0.016425991
0003f0 24 44 36 bd 7f ef ed bd f2 27 8e 3b 8b 91 16 3c
       -0.044498578 -0.11617946 0.004338258 0.009189974

sequential_8/conv2d_37/Conv2D f4 [50, 3, 4, 50]
000000 51 91 12 3d 97 5f 9e bc 43 b4 c5 3b 83 17 86 bb
       0.035783116 -0.01933269 0.0060334518 -0.0040921583
000010 55 d8 e6 3c 80 6b cc 3d c8 51 5f bd bc 63 d4 bc
       0.028179327 0.099814415 -0.054521352 -0.025926463
000020 71 96 cd bd 1e 33 68 bd b8 3f 6b bb 21 17 8c 3c
       -0.1003846 -0.056689374 -0.0035896134 0.017100872
000030 b9 19 89 3a c5 04 95 3d bb 88 12 3c 4b c7 c4 bd
       0.0010459936 0.072763 0.008943732 -0.096083246
000040 49 c0 9e 3d 6f 05 13 3e 11 1e 8f bd 21 9f c0 3d
       0.07751519 0.14357542 -0.069881566 0.094053514
000050 87 86 b7 3c 6a c3 5c 3d e5 a7 17 3d a1 1c 11 bd
       0.022403015 0.0538973 0.03702535 -0.035427693
000060 51 61 fc bd db 3c c4 3d 52 c3 22 3e d6 e7 a6 bd
       -0.12323249 0.0958192 0.15894821 -0.08149688
000070 dc c5 87 bd 28 22 8e 39 46 d1 a2 bd 67 da 67 3d
       -0.066295356 0.000271098 -0.07950072 0.05660477
000080 4d e6 ab bc e3 93 49 3c 9d 03 31 3d 26 01 99 3c
       -0.02098384 0.012303325 0.043216337 0.018677305
000090 22 21 55 3c 8b da 0c 3e a2 6f 67 bc 90 d0 af 3c
       0.013008388 0.13755243 -0.014125736 0.021461755
0000a0 fb 41 a9 bc 88 96 a9 bd dd a6 2e be 07 f1 c2 bc
       -0.020661345 -0.08280665 -0.17055841 -0.023796571
0000b0 44 01 06 be 85 92 07 bc 22 08 ba bd ad 10 e2 3b
       -0.1308642 -0.008274679 -0.090835825 0.0068989606
0000c0 73 44 97 bc cc f9 0c bc 6e f4 35 3c a8 4f cf bd
       -0.018465256 -0.008604478 0.01110564 -0.10122615
0000d0 17 cb d8 3b 60 24 cd 3d 04 28 7f 3d b7 ed a3 3d
       0.006616007 0.100167036 0.06229402 0.08004325
0000e0 3c 0a 6e 3d 71 73 76 3d ad b0 3b bd 57 6d b3 bd
       0.05811523 0.060168687 -0.045822788 -0.08761089
0000f0 f8 e2 72 bd 04 36 c2 bc 4e 78 5c bd c2 89 cc 3d
       -0.059298486 -0.023707397 -0.05382567 0.09987213
000100 86 c9 0d be 39 26 8b bd 2f 7c 8b 3d b3 62 d5 3d
       -0.13846406 -0.067944 0.068107955 0.10419216
000110 5c 7d 3a bd 7d 0d 0b bd 03 ec 5e bd 7d a1 31 3d
       -0.04552971 -0.03394841 -0.054424297 0.043366898
000120 2f c4 84 3c f9 ef bc 3c 7d db fc bd 9f 99 8f bd
       0.016206829 0.023063647 -0.123465516 -0.07011723
000130 93 0d 4f 3d b1 23 18 be dc 61 ff bd 17 a6 04 be
       0.050550055 -0.14857365 -0.12469837 -0.12953983
000140 07 4a 50 bd 44 2e 07 bd 69 10 37 bd 09 5d 3b bc
       -0.050851848 -0.033003107 -0.044693384 -0.0114357555
000150 be 9c 53 3b ba 73 1a bd d2 ff 2a bd 01 23 3a 3d
       0.003228947 -0.03770802 -0.041747876 0.04544354
000160 a4 d4 32 3c 0f e1 14 3b 6e 88 5d bd 04 b2 cd bd
       0.010914955 0.0022717153 -0.054085188 -0.100437194
000170 7d a8 f5 bd c2 ba 33 3b 32 df 1d 3d 57 8c 37 3d
       -0.11995027 0.0027424549 0.038542934 0.044811573
000180 41 ae 1d be 48 eb f1 bd 2c 58 c2 3d 58 92 ea 3d
       -0.15398504 -0.118124545 0.09489474 0.11453694
000190 63 6e 65 bd 1c 98 dc bc 3b 5e a2 3d 63 a7 bb 3b
       -0.056013476 -0.026928 0.07928129 0.005726741
0001a0 9a 6d 46 3d 0c b6 83 bd dc aa ae 3d a3 82 0d 3d
       0.048444368 -0.06431207 0.085286826 0.034548413
0001b0 88 f1 01 3b f9 8d c0 3b 94 59 d3 3c 01 32 b5 bd
       0.0019827802 0.0058762995 0.02579955 -0.08847428
0001c0 0c 05 95 bb 98 e7 e8 ba e9 50 11 be 9b 7f ea bc
       -0.004547721 -0.0017769216 -0.14191021 -0.0286253
0001d0 92 17 8a 3d 1c 17 e8 3d 70 02 8b bb 1d 0e 3e bd
       0.06742777 0.11332533 -0.004242234 -0.04640018
0001e0 3e 60 92 bd c8 b7 70 bd ca 8e 5f 3c a3 1e ed 3b
       -0.07147263 -0.058769017 0.013644883 0.007236318
0001f0 54 b1 bc bd 47 4b 23 bd 81 d6 e4 3d 4d 7f 9a bc
       -0.0921351 -0.039866712 0.11173726 -0.01885953
000200 ae 25 6f 3d d2 79 33 be 24 41 e3 bd 00 b5 88 3d
       0.058385544 -0.1752694 -0.11096409 0.06675148
000210 63 c3 73 3c 56 ab 23 bd e3 23 d8 3c 00 5e 80 bd
       0.014878127 -0.03995832 0.0263843 -0.06267929
000220 5f e3 7e bd f8 a7 3f bd c8 21 8f b9 1b b6 d3 bd
       -0.062228557 -0.046791047 -0.00027300254 -0.10337468
000230 58 38 37 3d 62 b3 d2 bc 9d 33 e0 bc a7 01 81 3c
       0.044731468 -0.025720302 -0.027368361 0.015747858
000240 c4 2e 8b 3d 20 45 b6 3d be 67 c7 bd 3a de e2 bd
       0.06796029 0.08899903 -0.09736584 -0.110775426
000250 2d 4e 05 3d a0 2e fb 3c a8 f2 29 bd 13 54 75 3d
       0.032545257 0.030661881 -0.04149118 0.059894633
000260 b2 6c 26 3e ba 6d b2 3a 19 91 79 3c 80 90 bd bc
       0.16252401 0.0013613023 0.015232348 -0.023140192
000270 5f 1e 4a 3c f4 82 dd bc 6f 72 0f 3d c6 b9 c6 bd
       0.012336343 -0.027039982 0.03502124 -0.09703402
000280 a0 15 f3 3c e1 63 59 bd 32 f9 79 3d 2c 80 56 bd
       0.029673398 -0.053073768 0.061028667 -0.052368328
000290 e6 9d 21 bd 9e 3c d9 3c 9f 46 6a 3d 95 fa e4 3d
       -0.039457224 0.026518162 0.057196256 0.11180607
0002a0 de 65 35 3c 1a 39 db b9 dd 52 9a 3c c8 bd 6b bc
       0.01107165 -0.0004181348 0.01883834 -0.014388509
0002b0 1c 30 81 3c 7c d9 44 3d 1c b5 cd bd 7c a9 ac 3c
       0.01577001 0.04805897 -0.100443095 0.02107691
0002c0 df 2c ca 3d 29 18 92 bd c4 60 04 3e 16 b9 40 be
       0.0987184 -0.071335144 0.12927538 -0.18820605
0002d0 69 f6 00 3c f3 85 cf ba 0f 72 a4 3b 73 02 c1 bc
       0.007871249 -0.0015832767 0.0050184797 -0.023560738
0002e0 45 ea ca 3d 98 70 a6 bd 63 c6 52 3d c0 46 87 bd
       0.099079646 -0.08126944 0.051458728 -0.06605291
0002f0 9d 7d c0 bc bd 3f bd bd 4e c6 f9 3c c5 3d 78 3d
       -0.023497397 -0.09240673 0.030490067 0.060605783
000300 db 82 82 bd 40 66 55 3d 3e 75 98 3d 82 40 2c 3e
       -0.06372615 0.052099466 0.07444237 0.16821483
000310 c4 c4 b4 bd a7 39 2e be 07 cb 1e 3d 09 8b 3b 3d
       -0.088265926 -0.1701418 0.03876784 0.04578689
000320 f7 b7 1d 3d bb 59 b8 bd 4d 70 a2 bc 43 0a 12 3e
       0.03850552 -0.0900149 -0.01982894 0.14261727
000330 d0 94 91 bd 66 7a fc 3a 5c fa 2a bc 8e e8 ad bd
       -0.07108462 0.0019262552 -0.010435667 -0.08491622
000340 9d 83 ba bb b6 00 ad bd 3e 79 3a 3c aa 6c 95 bd
       -0.005691959 -0.08447401 0.011381445 -0.07296117
000350 9d 36 89 3c 07 76 19 3b ed 32 4d bd 95 3f 76 3b
       0.016749674 0.0023416297 -0.050097395 0.003757452
000360 fe 52 59 bd a5 9c 3d bd ef 2d 46 bd 6c 09 eb 3d
       -0.053057663 -0.046291966 -0.04838365 0.114764065
000370 90 12 21 bd ff 54 90 3d f4 e6 33 bd 40 fc 08 bc
       -0.039324343 0.07047462 -0.043921426 -0.008360922
000380 c6 c5 81 bd 31 5e 5b 3d b1 db 19 3e e6 83 81 bc
       -0.063365504 0.053556625 0.15025212 -0.015809964
000390 29 61 23 be 15 b5 8b bc d8 9a 4c bd 5e a8 67 bd
       -0.15955032 -0.01705412 -0.049952358 -0.05655705
0003a0 7a 1d 86 3d 7c be d0 3c f5 ed fc 3c 26 46 0e 3c
       0.06548591 0.025481455 0.030875186 0.008683717
0003b0 8c f0 09 be 77 43 85 3d 70 8c cb 3c 24 87 ad bd
       -0.13470668 0.065070085 0.02484724 -0.08473042
0003c0 ab f3 6f bd bb 56 fc bd 93 18 64 3c 6d bb e9 3d
       -0.05858199 -0.1232123 0.013921875 0.11412702
0003d0 32 1a 4a be ac dd f6 bc 7e 10 39 be bc 29 04 3e
       -0.19736555 -0.030134998 -0.18072698 0.12906545
0003e0 bc 73 70 bd 22 33 ff bd b1 06 69 bd 6d 1c 61 bd
       -0.058704123 -0.12460925 -0.056891147 -0.05495875
0003f0 5f b1 8c bd 8f b4 71 3d a9 92 1b bd 88 05 c0 bc
       -0.06869768 0.059010085 -0.037981663 -0.023440138

sequential_8/conv2d_38/Conv2D f4 [60, 3, 4, 50]
000000 c3 c2 cd b9 76 64 f9 3c 19 29 bf bd 9e 97 d7 bd
       -0.00039245756 0.030443411 -0.09334011 -0.105269656
000010 ea 00 49 3d 67 54 b8 bd 95 9e 8f 3d a5 5e d1 3d
       0.049073137 -0.090004735 0.07012669 0.1022313
000020 a1 b5 0d 3d e9 9c 96 bd 24 47 de bd 62 a8 6e 3d
       0.034597043 -0.07354147 -0.10853413 0.05826605
000030 37 92 a0 3d bf 7a 06 3e e5 d2 b7 3d f6 61 73 3e
       0.07840388 0.13132761 0.08975772 0.23767838
000040 0d 21 99 3d 92 ad f3 bb c6 dc 17 bd 81 74 ea bb
       0.07477007 -0.0074364627 -0.03707578 -0.0071550016
000050 44 7b 01 3d c9 3f ea 3d ba d7 bb 3d 88 1a 89 3d
       0.031611696 0.11437947 0.09172006 0.066945136
000060 87 cc 48 3c ad ec 18 be 72 a3 fc 3c 1a c5 bb 3d
       0.012255794 -0.14934035 0.030839656 0.091684535
000070 6d 72 07 be f7 f2 c3 3d 7e a2 d0 3c 93 0a c6 bd
       -0.13227244 0.09567826 0.025468107 -0.096699856
000080 54 6b 15 bd 2b ec 32 3d 8d 1f 5b 3e fb ed 29 3d
       -0.03647931 0.04368226 0.21398754 0.04148672
000090 50 7b af 3d 22 8e 17 bd 3f db 79 3c 40 76 86 3c
       0.08568442 -0.037000783 0.015250026 0.016413808
0000a0 4b b9 f9 3c 86 36 d2 3d 2b 4c 5e 3d e7 a8 40 3d
       0.030483862 0.10264306 0.05427186 0.047036078
0000b0 6b a4 75 bb 85 66 31 be b0 a4 18 3e 22 da 0a be
       -0.0037482034 -0.17324264 0.14906573 -0.13559774
0000c0 0e 45 b1 bc 18 4a 3e 3e 54 e0 6d 3c f6 19 15 bd
       -0.021639373 0.18582952 0.014518816 -0.03640171
0000d0 ab ee 94 bd 26 9a 26 be 4d a8 ee 3d 9a be 3d be
       -0.07272085 -0.1626974 0.116531946 -0.1852974
0000e0 5b 1b 8a 3d 3d af 1e 3d 30 76 53 bd 6e 6d 32 be
       0.06743499 0.03874134 -0.051626384 -0.17424557
0000f0 83 8a a7 bc 67 eb 7f 3d 62 49 a0 3c 2b 1b d3 3d
       -0.02045179 0.062480357 0.019566242 0.10307916
000100 98 e7 4f 3e db d0 5b 3e ad 02 79 3d e3 f1 21 3c
       0.2030319 0.21466391 0.060793567 0.00988433
000110 75 81 f3 bc 4a 5a 10 3d c2 cf 22 3d 9b e8 7f 3d
       -0.029724816 0.035242356 0.039748915 0.06247769
000120 51 bd ea 3d 88 2c b0 3d 03 d4 75 bd f0 86 12 bd
       0.114618905 0.08602244 -0.060016643 -0.035773218
000130 e8 ce fb 3a fc dc 7e 3d 59 52 3c bd 74 71 91 3d
       0.0019211443 0.062222466 -0.04597697 0.071017176
000140 43 29 e5 3b 39 7c de bc 6f 92 8e bd 2b 01 e7 bc
       0.006993444 -0.027158843 -0.06961524 -0.0281988
000150 0f aa f4 3d 3e a5 83 3c 30 e5 8c 3d 22 51 bb bd
       0.119464986 0.016070005 0.068796515 -0.09146334
000160 e4 28 b9 3c 2a 81 81 bd 10 6a 8f 3d e7 47 2b 3e
       0.022602506 -0.06323464 0.07002652 0.16726647
000170 aa e9 3f 3d 94 f7 7c 3d 98 a0 58 bd b6 73 55 be
       0.0468537 0.061759546 -0.05288753 -0.20844921
000180 e4 8e 31 3e a6 05 44 be 9d b7 21 bd bc eb f7 3d
       0.17339665 -0.1914278 -0.039481748 0.1210551
000190 50 23 80 3b 8f f5 d9 3c 0f be ed bb 6a 3e 33 bd
       0.0039104596 0.02660635 -0.0072553228 -0.043760695
0001a0 e2 89 bc 3c 1f 7f e6 bd 0d ba 36 3e 65 71 dd 3d
       0.023014966 -0.11254715 0.1784441 0.10812644
0001b0 4d 55 7b bd c8 b5 05 be 80 48 da bd 73 6f 5c 3d
       -0.061360646 -0.13057625 -0.106583595 0.053817224
0001c0 ed a2 f3 3d bb b2 2a 3e a9 b2 19 3e 54 8e 82 3e
       0.1189631 0.16669743 0.1500956 0.25499213
0001d0 03 b3 f0 3d 84 04 88 bc 18 ac 96 3c 70 6e c9 3d
       0.11752894 -0.016603716 0.018392608 0.098355174
0001e0 c7 99 e3 bc ae a5 f6 3d 46 64 46 3e cb 9f 9c 3d
       -0.027783288 0.1204332 0.19374189 0.076476656
0001f0 5d 25 1a bc dc 67 ac bd 6d 38 e0 bc b7 92 d0 3c
       -0.009408322 -0.08418247 -0.027370656 0.025460584
000200 3f fb 2d bd 7e 3a 8b 3d 4e 3b ad bd e8 9e 4d 3d
       -0.042475935 0.06798266 -0.08458577 0.050200373
000210 3e 13 0d be 3c 0c eb bc 24 20 12 3e 0f 86 1c 3e
       -0.13776872 -0.028692357 0.14270073 0.15285514
000220 90 0a a9 3d c7 12 c0 3b d0 c7 2e 3c 45 41 4f bd
       0.08253968 0.0058616134 0.010667756 -0.050599355
000230 ab 29 57 3d f5 98 4a 3e b4 40 34 bd 2c f8 1e 3a
       0.052529972 0.19784911 -0.04400702 0.0006064202
000240 72 e5 03 bd 71 19 47 be 37 1e 07 3e 36 92 12 be
       -0.032201238 -0.19443299 0.1319512 -0.14313588
000250 16 68 95 bd 7c e1 9c 3d e5 49 9d 3d fb ff 31 bd
       -0.072952434 0.07660195 0.0768011 -0.043457013
000260 6a fe df 3c 71 3d e9 bd 7f e9 c0 3d 87 3f 04 bd
       0.027342994 -0.11388672 0.09419536 -0.032287147
000270 f4 89 1a 3e 00 52 96 bc aa 9a 03 be 67 71 b1 bd
       0.15091687 -0.018349648 -0.12851968 -0.08664208
000280 47 cf 94 bd 9f 6a ef 3d 18 ee 84 3d 05 9d 3b 3e
       -0.072660975 0.11690258 0.06490725 0.18321617
000290 0f c1 14 3e cf dd 88 3e 22 90 eb 3d fa d6 8e bc
       0.14526771 0.26731727 0.115021005 -0.017436493
0002a0 b9 ae 27 3d f6 5a 8f 3c f9 70 00 bc 59 21 b9 3d
       0.040938113 0.017499428 -0.007839435 0.09039564
0002b0 db a5 95 3d 71 0a a0 3d b7 34 2b bd 74 ef 01 3d
       0.07307025 0.078144915 -0.04179832 0.0317225
0002c0 d5 4a 69 3b 8c e1 32 3d a0 18 0f bd f4 b9 a3 3b
       0.0035597582 0.04367213 -0.034935594 0.0049965326
0002d0 a5 75 66 3b a9 3e b4 3d 88 b9 fe bd 4f 50 a3 bd
       0.0035165336 0.08801014 -0.12437731 -0.07974302
0002e0 bd 20 a9 3d 81 f7 93 3d be 18 23 3e d2 5c 1e 3a
       0.082581975 0.07224942 0.15927407 0.0006041053
0002f0 02 a2 95 bd b5 35 51 3c 38 32 af 3d 29 f1 47 3e
       -0.07306291 0.012769152 0.085545 0.19525589
000300 29 2d 0e 3b 97 cd 99 3d 34 8f 1c 3d 5c 7a 27 be
       0.0021694398 0.07509916 0.038222507 -0.1635527
000310 c9 b2 5e 3d 84 73 c5 bd 9f 7c 57 bc 28 ae 03 3e
       0.05436972 -0.096411735 -0.013152271 0.12859404
000320 d9 c7 0e be 84 bc e5 bc 12 e4 30 bd ea 4e ae bd
       -0.13943423 -0.028043993 -0.043186255 -0.085111454
000330 60 75 1c bd 08 4f 43 bd 18 93 0c be d5 35 d9 bd
       -0.038197875 -0.047682792 -0.13727987 -0.10605971
000340 3b 0c 10 bd 73 1e 08 be 47 3b d2 bd c0 4e a9 3a
       -0.035167914 -0.13292865 -0.102652125 0.0012917146
000350 d9 9a 98 3d 3b 13 55 be 85 98 75 bd 48 30 8c bb
       0.0745141 -0.20808117 -0.059959907 -0.0042782165
000360 70 f0 e1 bc 4b 6e 99 3b 51 63 f4 bd 87 4d e9 3c
       -0.02758047 0.0046823374 -0.119330056 0.02847935
000370 22 8e 99 bd 50 58 8e 3d c3 11 15 bd 5a 48 3d 3d
       -0.07497813 0.06950438 -0.036393892 0.046211578
000380 85 92 cc 3d 45 fa 44 bd 56 96 0f bd 89 6b 71 3c
       0.09988884 -0.048090238 -0.03505548 0.014735111
000390 92 33 38 be 55 59 cb 3c 28 b4 1d 3b 37 62 16 be
       -0.17988423 0.02482287 0.002406368 -0.14685903
0003a0 14 ed 09 bd 2f 48 e7 bc bf af ba 3c 24 f1 14 be
       -0.03367336 -0.028232662 0.02278888 -0.14545113
0003b0 64 83 86 3d 0a 56 d3 3d a2 e4 1d be 0b 6e 07 3e
       0.065680295 0.10319145 -0.15419248 0.13225572
0003c0 db 44 16 3d a8 fd 91 bd ae d0 84 3d ea c2 4e be
       0.03668676 -0.07128459 0.06485115 -0.20191541
0003d0 e5 dc 3a 3e 02 8c 2f be f0 b5 78 3d 56 cb 36 3c
       0.18248327 -0.17143252 0.060720384 0.0111568775
0003e0 40 ea 1a be 0c 2a 87 bd ce 7a 46 be 50 c3 f2 bc
       -0.15128422 -0.06599817 -0.19382784 -0.029634148
0003f0 ca 23 80 3d 48 e7 1d bd 78 ed 87 3b 8e de fb bd
       0.06256826 -0.038550645 0.0041481815 -0.12298308

sequential_8/dense_6/BiasAdd/ReadVariableOp f4 [50]
000000 67 10 a4 bd 4d c7 5e bd 6d 34 64 ba 8a 9f 68 bc
       -0.08010941 -0.054389287 -0.0008705322 -0.014198193
000010 c5 94 ae 3c 48 c2 9a 3c 14 b0 1b 3d b7 40 c0 3d
       0.021311173 0.018891469 0.038009718 0.093873434
000020 c8 ac 1a 3d 3d a2 13 bd 47 46 b3 bc 81 4b 75 bc
       0.037762433 -0.036043394 -0.021884097 -0.014971615
000030 24 f6 a3 bd 4b c9 a7 3d 48 56 2c 3d e5 d6 ba 3c
       -0.08005932 0.081926905 0.04207447 0.022807548
000040 b3 ba 18 3c 06 30 b9 3b 64 4b 8a 3d d9 d7 30 bd
       0.009321856 0.005651477 0.06752661 -0.0431746
000050 73 4a ca bb ee b6 82 bd 3e a7 a5 bd b3 df ad 3d
       -0.006173426 -0.06382547 -0.080885395 0.08489933
000060 86 db 1f 3d 7e 3d 82 bd 33 0a aa 3c 1c 82 b5 3d
       0.039027713 -0.06359385 0.020756816 0.08862707
000070 05 06 6f 3d 59 c7 08 bc 73 c2 fd bc 30 82 05 3d
       0.05835535 -0.008348309 -0.03097651 0.03259486
000080 e1 57 70 3c 3f 3a 2b 3c 42 c1 bd bd e9 24 84 3d
       0.014669389 0.010450899 -0.092653766 0.064523526
000090 9c 85 cf bc 20 6d 90 bc b7 2a c6 bc 4b d2 30 3c
       -0.025332265 -0.01763016 -0.02419029 0.010792325
0000a0 95 9a a2 3c bb 2e bf bd 5a b8 01 be 78 63 a3 3b
       0.019849101 -0.09335085 -0.12667981 0.004986223
0000b0 60 5c 66 3d a2 c2 02 bd 18 0c 24 bd d2 d1 b3 bc
       0.05624044 -0.031923898 -0.040050596 -0.021950636
0000c0 15 95 86 bd c9 1f 05 3c
       -0.06571404 0.008125254
