app/src/main/ml/model_esc50.tflite (tflite, 315440 bytes, 12 tensors)

sequential/conv2d/BiasAdd/ReadVariableOp f4 [40]
000000 b1 d5 84 bb 7d 96 06 bb 06 77 38 3a 34 5f c9 bb
       -0.0040537943 -0.0020536475 0.0007036779 -0.0061453823
000010 66 d1 f0 ba ae 39 b0 3a 24 fd 41 3a f7 a8 a2 ba
       -0.0018372952 0.0013444924 0.00074000866 -0.0012409975
000020 7a 06 c1 bb 80 6c 06 3b 9f 9b 45 bb e0 87 ec ba
       -0.0058906646 0.0020511448 -0.0030152572 -0.0018045865
000030 21 02 94 bb ba de 14 bb 20 d7 d2 b9 57 dc 52 bb
       -0.0045168553 -0.0022715763 -0.00040214602 -0.003217479
000040 bf 44 9f ba 90 21 23 bb 37 4e 91 ba 56 92 1b 3a
       -0.0012151225 -0.002489183 -0.0011085932 0.00059345865
000050 01 cd 94 bb 5e 65 6f ba 5a 8e ad 38 34 ff 64 b9
       -0.00454104 -0.00091322314 8.275798e-05 -0.00021838845
000060 4e 31 b3 3a e2 16 3c bb ec 4b 39 3a 7a 09 91 3b
       0.001367131 -0.0028700163 0.0007068503 0.0044261785
000070 e4 3a 23 bb ee 51 a9 b9 5b 8c 54 3a 66 ac 92 ba
       -0.0024906928 -0.00032295234 0.0008108073 -0.0011190295
000080 7e a9 df ba c2 bc b2 ba 7b b5 c1 bb dc ca 94 ba
       -0.0017064062 -0.0013636576 -0.0059115267 -0.0011351961
000090 e5 b4 cd bb 58 f0 c2 ba b8 de d5 b7 d3 69 8c ba
       -0.006277668 -0.0014872653 -2.549529e-05 -0.001071269

sequential/conv2d_1/BiasAdd/ReadVariableOp f4 [40]
000000 f8 a5 0c 3c ca e3 a4 bc 7c 67 67 bc 43 5f 37 bc
       0.008584492 -0.02012815 -0.014123794 -0.011192146
000010 7e d0 01 3a 43 3b c8 bb 0c 23 8f bc 99 c4 c3 3b
       0.0004952027 -0.00611058 -0.017472766 0.005974364
000020 91 28 50 bb ef bb f8 bb ef 07 01 3c d4 ae c8 bb
       -0.003176246 -0.007590763 0.007875427 -0.0061243568
000030 78 44 b6 bc 86 f2 a1 bc 52 4a 99 bb b6 88 d4 39
       -0.022249445 -0.019768964 -0.004678049 0.0004053765
000040 a7 43 bb bc e5 47 21 bc f0 22 3b 3b ca ad c4 ba
       -0.022859408 -0.009843801 0.002855476 -0.0015005406
000050 f7 bd e5 3b 03 d5 95 bc 88 1d 7a bc a3 7f f0 3a
       0.007011171 -0.018290048 -0.01526583 0.0018348586
000060 3f 75 26 bd da c7 f4 bb 2b 5b db bc 14 72 8f bc
       -0.04063916 -0.007470113 -0.02677687 -0.017510451
000070 bc 57 c8 bb c4 1e c6 bc 79 a5 14 bc d8 d8 dc bc
       -0.0061139744 -0.024184592 -0.009072655 -0.026958868
000080 ba 1e 13 bb 54 40 c5 bc 0d f3 75 3a 92 cf ff bc
       -0.0022448734 -0.024078526 0.00093822257 -0.031226907
000090 05 d8 e8 bc 24 cf 29 bc 66 e7 19 3c c4 8d c4 bc
       -0.028423319 -0.010364328 0.009393549 -0.02399338

sequential/conv2d_2/BiasAdd/ReadVariableOp f4 [50]
000000 a0 d7 d0 3b 1f 12 4c bd a1 af 94 bb 67 a5 09 3d
       0.0063733608 -0.04982197 -0.004537538 0.033605006
000010 2c 8d 3a bd 70 c8 d8 3c 3e 1e 43 bd e4 8e 94 bc
       -0.04554479 0.026462764 -0.047636263 -0.018134542
000020 61 4c ad bd 9e 20 02 3c 0e 10 de bd b8 20 18 bc
       -0.08461834 0.007942347 -0.10842906 -0.0092851445
000030 5b 34 5e bc 8c 79 5b bd 8c d6 0d bd 1b 85 b5 bb
       -0.013562287 -0.053582713 -0.034628436 -0.005539549
000040 23 8a 64 3d 06 79 29 bd af b8 06 3d 90 dd c2 3b
       0.0557958 -0.041375183 0.03289097 0.0059468225
000050 c5 ef 22 bc 00 e1 df bd 45 95 26 bd f0 6f b2 bd
       -0.009944861 -0.10931587 -0.0406697 -0.08712757
000060 4a b2 a4 3d cc 90 25 3c 08 bd 33 bd 3c 31 bf bd
       0.080418184 0.010105323 -0.043881446 -0.093355626
000070 c3 9a 3f 3d 1b df 96 bd 30 f4 10 bc 55 f0 58 3d
       0.04677845 -0.07366773 -0.008847281 0.052963573
000080 c0 b6 39 bc c2 33 e6 3c 46 e5 96 bc e9 e3 91 3d
       -0.011335075 0.028100852 -0.018419873 0.071235485
000090 73 d5 67 3d c5 34 69 3d 0e 07 fb 3c b1 31 0f 3d
       0.056600045 0.05693509 0.030643012 0.0349595
0000a0 fd bb a8 bd 62 fb cf 3c c3 49 4a bd 44 f8 7a 3c
       -0.08238981 0.025388423 -0.04938675 0.01531798
0000b0 c8 08 e2 bb 4c c7 47 bc be b2 69 39 b4 f1 97 bd
       -0.0068980195 -0.012193512 0.00022287198 -0.07419148
0000c0 e1 a2 6f 3d a5 4a 69 3d
       0.058504943 0.056955952

sequential/conv2d_3/BiasAdd/ReadVariableOp f4 [50]
000000 bc 8d d3 bc 02 2f 75 bd a7 5e bd bd ba 3a 0c 3d
       -0.02582442 -0.059859283 -0.09246569 0.034235694
000010 c5 b8 ae bd ad 8e 5b bd ab 62 69 bd 22 cf 8f ba
       -0.08531336 -0.053602863 -0.056978863 -0.0010971765
000020 a0 40 f3 3c c7 a7 5b bd b9 f7 76 bc 00 06 d3 bd
       0.029693902 -0.0536268 -0.01507371 -0.10303879
000030 2b b3 d6 bd 15 87 c4 bd e0 4a d8 bc bc 11 eb 3c
       -0.10483392 -0.09596077 -0.02640289 0.02869498
000040 7e 8e 18 bd b5 90 ae bd ef 66 51 3d 3d 99 a5 bd
       -0.037245266 -0.085236944 0.051123556 -0.080858685
000050 a4 32 28 bd 31 58 2b 3d ba 52 a5 bd 3b eb 0d bd
       -0.04106392 0.041832153 -0.080724195 -0.03464816
000060 6a e4 0f be b3 97 8b bc 6b 93 a6 3a 81 ab d3 bc
       -0.14051977 -0.01704011 0.0012708729 -0.025838615
000070 27 e6 06 be 34 7a 82 bd 3f f2 5a bd fa 74 8c bd
       -0.13173734 -0.06370965 -0.05345368 -0.06858249
000080 6e e3 95 bd d5 29 00 3e e5 32 63 bd 4d 6f da bd
       -0.073187694 0.12515958 -0.05546846 -0.1066576
000090 3a b8 3b bd 98 20 63 bd 37 7a 5d bc 51 bc 98 bd
       -0.04582999 -0.055451006 -0.013517908 -0.074577935
0000a0 e3 f6 a5 bc 0d 6b b6 bd 7b 18 88 bd 0b 50 17 3c
       -0.020259326 -0.08907137 -0.06645294 0.009235392
0000b0 a1 20 c5 bb e0 83 24 bc 8c e3 d8 bc a8 87 e1 bd
       -0.0060158526 -0.010041207 -0.02647569 -0.110122025
0000c0 d5 08 6d 3d 03 99 b0 bd
       0.05786975 -0.08622935

sequential/conv2d_4/BiasAdd/ReadVariableOp f4 [60]
000000 ab f6 a3 bc c5 0b 81 bd 69 8a 95 3c 1c a5 74 bc
       -0.020015081 -0.06301073 0.018254476 -0.014931943
000010 b6 38 14 be 75 20 ae bd 76 64 a9 3c 6d fb 97 3b
       -0.14474759 -0.085022844 0.020677786 0.0046381266
000020 14 9a 9e bb 53 71 f7 bc 10 4f 66 bc 04 fe 00 3d
       -0.004840145 -0.030205404 -0.014056936 0.03149225
000030 1c 53 37 bc bd ea 51 3c 0a ca 85 bd aa 96 12 bd
       -0.011189248 0.012812314 -0.065326765 -0.035788216
000040 94 34 7a bd 98 98 c2 bd c0 4a d7 bb 8f eb f2 bd
       -0.0610853 -0.09501761 -0.00657019 -0.118613355
000050 25 11 42 bd 6f a7 cc bb f2 70 99 bd 0a 05 ae bc
       -0.04737963 -0.0062455456 -0.07492246 -0.021242637
000060 da 4c bd bd fa 59 73 bd ea 2c aa bd 3b 2f d1 bd
       -0.09243174 -0.05941198 -0.08309348 -0.102140866
000070 34 1e 2f bc 43 e6 a3 bd d5 23 03 be 37 59 ca bd
       -0.010688353 -0.08002903 -0.12806638 -0.09880298
000080 51 85 93 bd 6c 4d 3f 3a de 60 b7 bd ec cb 6f bd
       -0.072031625 0.00072976085 -0.08954023 -0.058544084
000090 61 dc 6f bb 2a 20 12 bd 4e 7f 92 3c de e5 ba 3b
       -0.0036599862 -0.035675205 0.01788297 0.005703672
0000a0 4b 4b c9 bd 21 b0 68 bd a8 24 80 bd 72 e1 59 bd
       -0.09828814 -0.056808595 -0.062569916 -0.053193517
0000b0 c8 fb a1 bd 1b c5 26 bd 7d bf ea bd 6d 90 a2 bc
       -0.079093516 -0.04071532 -0.11462305 -0.019844258
0000c0 04 54 5e bd 3d 7e f6 bc 8a c2 85 bd d0 3a a4 3c
       -0.054279342 -0.030089492 -0.06531246 0.020047575
0000d0 13 5c ab bd b5 08 92 3c 4c e5 ce 3c 56 c6 c2 bc
       -0.08367171 0.017826417 0.025255822 -0.023776215
0000e0 4e 1c 49 ba 2c 02 80 3d bb b5 90 bc 91 46 b4 bd
       -0.0007671759 0.06250414 -0.01766478 -0.08802522

sequential/conv2d/Conv2D f4 [40, 4, 2, 1]
000000 9e 48 1d 3c 9f 95 ed 3e b0 f4 84 3d 3b 14 2d 3d
       0.009599833 0.46403214 0.06491983 0.04225562
000010 b2 d9 13 3e 75 6c b9 3e 2f be 84 b9 61 0e 27 3e
       0.14438513 0.3621556 -0.000253187 0.16314079
000020 8e 2f ba 3e 57 80 b0 3e 6a 3e e0 3e 02 76 c3 3e
       0.36364406 0.34472916 0.43797618 0.3817597
000030 ba d8 83 bd 2d 26 1e be c8 46 19 3e 30 b6 aa 3d
       -0.06437822 -0.1544425 0.14968407 0.08335531
000040 a2 bf b6 be 72 54 81 be 7f 54 02 3e 7f a6 91 3d
       -0.3569308 -0.2525974 0.12727545 0.07111835
000050 56 5a b6 3c 6e 7a aa 3d 39 f8 27 bd 46 1d 35 bd
       0.022259872 0.08324133 -0.041008208 -0.04421737
000060 9b ee 93 3d d5 a8 8c 3e c8 98 97 3e ab 75 a2 3e
       0.07223245 0.2747256 0.2960875 0.317304
000070 a1 f8 86 3e 4e 31 4f 3e cc e2 63 3e 08 70 1f 3e
       0.26361564 0.20233652 0.22254485 0.1557008
000080 04 54 11 3f b2 3d 6c 3e 91 c7 35 be 25 ac 95 be
       0.5676882 0.2307041 -0.1775191 -0.29232898
000090 d9 b2 37 3d 1d 0b 9a be fc 90 b6 3d 68 d7 6f be
       0.044848297 -0.30086604 0.08914372 -0.23422015
0000a0 e7 ab b2 be 50 68 7a bd 9a fb de bb a1 a2 4c 3e
       -0.34896776 -0.061134636 -0.0068048956 0.19983913
0000b0 c7 37 a3 be 24 e5 bd 3c 81 52 05 3e b6 6e 83 3e
       -0.31878492 0.023180552 0.13019754 0.25670403
0000c0 eb 7e f9 be 01 e7 0c bf 6a 12 ff bc 6c d3 86 be
       -0.48729643 -0.55039984 -0.03113671 -0.26333177
0000d0 fd f2 56 3e 05 1a 11 3d 92 62 1d 3d 5f 72 cc bd
       0.2099113 0.035425205 0.038424082 -0.09982752
0000e0 c4 79 ff be 4a 9a 19 3e 45 e1 4f 3e 5e de 05 3f
       -0.49897587 0.15000263 0.20300777 0.5229243
0000f0 1d 63 c2 be 6b 74 9f bd 83 ca f5 bd dd 0d 1e 3e
       -0.37966242 -0.07785877 -0.12001517 0.15434976
000100 87 9e b4 3e 0d 58 c9 3d fa b3 70 3e b8 f7 9b 3e
       0.35277197 0.098312475 0.23506156 0.30462432
000110 01 f7 9e 3e 7a 1c 23 3e 84 42 2c 3e 97 a3 09 be
       0.31047824 0.15928832 0.16822249 -0.13441311
000120 e0 ec 55 3d b7 49 54 be cb e2 6e 3d 2b 40 99 be
       0.052227855 -0.20731245 0.058321755 -0.2993177
000130 be 31 12 be 5e 2f bb be 61 8f 54 3d b1 4e 8a be
       -0.14276788 -0.36559576 0.05189455 -0.27013162
000140 49 7c c6 3d 83 4a 29 3f ca 28 55 be 7e ae 21 bd
       0.09691674 0.6612932 -0.20816341 -0.03947305
000150 a3 d9 ac 3c 53 53 c5 3e d3 61 fd bd 8e 66 1e 3e
       0.021099871 0.38540134 -0.12372174 0.15468809
000160 26 58 ff 3e d4 92 ae 3e af e2 89 be 38 bc 4c be
       0.4987194 0.34096396 -0.26930758 -0.19993675
000170 04 14 b5 be a3 d3 07 be d4 42 21 3e a8 be 09 3e
       -0.35366833 -0.13264327 0.15748149 0.13451636
000180 46 7f 2d be 63 d4 39 be 43 fe 0a 3f 55 c0 d5 3e
       -0.16943082 -0.18147425 0.5429422 0.417483
000190 9b ae 48 3d d3 74 9c bd c3 9a 0e 3e b1 fd b9 bd
       0.04899464 -0.0763947 0.13926224 -0.09081591
0001a0 3c 0a 92 3e a8 9d 18 be b4 25 a5 3e 6b e3 ba bd
       0.28523433 -0.14903891 0.32255328 -0.09125408
0001b0 a5 54 58 bd c3 a8 a5 be c4 ba cd bc d0 33 30 be
       -0.0528151 -0.32355317 -0.02511347 -0.17207265
0001c0 69 1c 8b be 52 79 05 3d b0 42 99 be 20 09 dc be
       -0.27170113 0.032586403 -0.2993369 -0.42975712
0001d0 47 db e1 3e 62 67 de 3e 8e fd a6 bd 26 bc 6a be
       0.44112608 0.4343825 -0.081538305 -0.22923335
0001e0 0d bd 0e bd 88 7a 70 3e a7 52 16 3d 56 c5 b1 3e
       -0.03484826 0.23484242 0.036699917 0.34720868
0001f0 7c 11 bf 3c 0d 0e b0 3e 5f 73 fe bd 35 f0 5a 3e
       0.023323767 0.3438572 -0.12424349 0.21380694
000200 ab 6b 27 3f ee 05 c4 3e 84 4c 5c be 80 b2 c8 be
       0.65398663 0.38285774 -0.21513563 -0.39198685
000210 2b 71 bb 3d f4 1b 93 be a1 c9 55 bd 36 2a 1f be
       0.091524445 -0.28732264 -0.05219424 -0.15543446
000220 e4 b7 19 be 8a ed e8 be b0 f9 0e 3f b1 9f 03 3e
       -0.15011555 -0.45493728 0.5584974 0.12853886
000230 8a fb 6c 3e 13 51 fa bd f3 73 96 3d 39 e5 bf be
       0.2314283 -0.12222495 0.07346334 -0.3747957
000240 a9 48 0c 3e 10 f0 16 3f a7 5d e6 be 07 8b 35 bd
       0.13699593 0.58960056 -0.44993326 -0.04432204
000250 21 b2 53 be 77 ee 3f 3e 18 42 85 be 9b 43 cd 3d
       -0.2067342 0.18743311 -0.26026988 0.1002266
000260 65 0f 01 3f 95 c9 d7 3e 9e b5 b4 be 61 a6 ae be
       0.50414115 0.42145982 -0.35294813 -0.34111312
000270 9e 8e 46 be 37 31 96 bd 41 59 10 3d b1 62 bd ba
       -0.19390342 -0.07333606 0.03524137 -0.0014448968
000280 fc 11 bf 3e 02 e6 14 3e 13 df 09 3f 1e 0f c5 3e
       0.37318408 0.14540866 0.5385601 0.38488096
000290 87 1e 84 bd 29 d3 b9 bd 1b 5a 22 3e 55 11 23 bd
       -0.06451135 -0.09073479 0.15854685 -0.03981145
0002a0 de 14 d3 bd 88 4d 98 bd 9c 37 7b 3e ef 36 e2 bd
       -0.103067145 -0.07436663 0.24532932 -0.11045634
0002b0 d8 2f c1 bc 17 a5 95 be da 4e a1 3e f1 03 53 3e
       -0.023582384 -0.29227516 0.3150547 0.20606972
0002c0 42 62 d9 be 37 26 7b be be 87 62 bd eb da 8f 3e
       -0.42457777 -0.24526297 -0.055305235 0.2809671
0002d0 d9 7e 67 be 02 36 59 3d 8a 42 05 3e 7f fe 24 3e
       -0.22606982 0.05303002 0.13013664 0.16112708
0002e0 89 59 7a be 38 0d 9e 3e a1 32 fd be a1 01 40 bd
       -0.24448217 0.3086946 -0.4945269 -0.046876553
0002f0 6f 42 0d bd cc b5 a3 3e 25 d3 b7 3a e8 aa 5d 3c
       -0.034487184 0.31974638 0.0014024718 0.013529517
000300 4b 7e 16 be c5 74 8c 3d 3c e2 53 be 08 09 4e 3d
       -0.14696614 0.068582095 -0.2069177 0.05030158
000310 0f fd d7 bd f7 28 de bd 49 26 45 3d 6e d9 0c 3e
       -0.10546314 -0.10847657 0.048132215 0.13754818
000320 20 e5 e2 bd 3b f2 c1 3e 10 10 de be d2 a8 a7 3d
       -0.110788584 0.3788012 -0.4337163 0.08186497
000330 e9 d4 d8 bd c5 45 45 3e 03 ea 03 3e 83 53 89 3e
       -0.105874844 0.19264896 0.12882237 0.26821527
000340 a8 fc 53 be 56 f4 83 be fa 62 aa 3e d6 fe 87 3e
       -0.2070185 -0.2577235 0.33278638 0.26561612
000350 8c cb 50 3c 72 f6 07 be e3 e9 06 bd 01 d7 e6 bd
       0.012743842 -0.13277605 -0.032937896 -0.112714775
000360 a6 90 50 3c 01 37 64 be 76 74 e6 bd 57 05 83 be
       0.012729799 -0.22286607 -0.11252682 -0.2559001
000370 b1 e9 11 3e 1a 1d c6 bd b6 82 2c be 55 88 7a be
       0.14249302 -0.096735194 -0.16846737 -0.24466069
000380 75 59 cb 3e 3e 18 bf be 2a 84 01 3e 1e a0 43 be
       0.39716688 -0.37323183 0.12648073 -0.19104049
000390 04 1e 43 bd d9 70 ac be e7 a7 88 3e 01 c8 a2 bd
       -0.047636047 -0.33679846 0.266906 -0.07948304
0003a0 6e 48 1c be 0b 86 31 be 34 3f 60 bd af 30 e6 3d
       -0.15262005 -0.1733629 -0.054747775 0.112397544
0003b0 6c 0e 61 3e 5b a4 87 3e fa fc e4 bc a9 cc 23 3e
       0.21978158 0.2649258 -0.02795266 0.1599604
0003c0 89 2c 5b be 23 68 85 be 99 f3 a4 be 9b 31 88 be
       -0.21403708 -0.26056013 -0.322171 -0.26600346
0003d0 7d 49 30 be e3 10 cc 3d e3 b3 e1 bd 01 9c 03 3e
       -0.17215534 0.099641584 -0.11020639 0.1285248
0003e0 ce 47 e8 be 3a 33 e1 bd e1 0c a7 bd 04 0d df 3e
       -0.45367283 -0.10996099 -0.08156753 0.43564618
0003f0 76 2d 8a be 5a ff 18 3e bd 07 88 3d 40 0d 62 3e
       -0.2698781 0.14941159 0.06642101 0.22075367

sequential/conv2d_1/Conv2D f4 [40, 4, 2, 40]
000000 09 df 0b 3d db 7d df 3d e8 43 ad bd bd 08 52 3d
       0.03414825 0.10912677 -0.08460218 0.051277865
000010 fa a7 98 bd 77 8a 4b 3e 3e 4b c5 3c cf 5f 87 3d
       -0.07453914 0.19877039 0.02408373 0.06610071
000020 7e 50 df bc c8 d1 a0 3d 7a 81 04 be 31 6e 97 3b
       -0.027260061 0.078525126 -0.12940016 0.00462129
000030 76 8d 3b 3e 50 c0 03 bd 7d b2 97 be 87 81 80 3d
       0.18315682 -0.032165825 -0.29628363 0.062747054
000040 92 07 2b be 48 4c f5 bc 44 19 7f bd 31 5f e7 bc
       -0.16702107 -0.0299436 -0.062279955 -0.028243633
000050 b9 85 1e 3e 26 06 f6 3d 2b 2b a4 3d 34 ca b9 bd
       0.15480699 0.120128915 0.08016046 -0.0907177
000060 0a fe e3 3d 2f d1 8f 3c fe b9 5e bd 12 b2 1c bd
       0.111324385 0.017555801 -0.054376595 -0.03825576
000070 a8 63 08 3e 15 81 62 bd 75 c8 d3 bd a3 32 d6 3d
       0.13319266 -0.055298883 -0.103409685 0.10458877
000080 5a 56 17 be 65 bf 3c 3d 76 07 f9 3d ec bd 1c bd
       -0.14779034 0.046080966 0.12159626 -0.03826706
000090 9b c6 7d 3d 18 1d 61 bd 7c f8 2b be 82 60 61 3d
       0.061956983 -0.054959387 -0.16794008 0.055023678
0000a0 b6 0f aa 3c d0 b2 b8 3d 8e 6c 29 bd 3e ae d7 3d
       0.020759445 0.09018481 -0.04136329 0.10531281
0000b0 72 bb 81 bd 88 9c 82 3d 78 06 80 bc 8b 50 0f 3e
       -0.063345805 0.06377512 -0.015628085 0.13995568
0000c0 6f 0f 1d 3d d9 34 8e bd f9 06 0a be 50 fe 60 3d
       0.038344797 -0.06943674 -0.13479222 0.05493003
0000d0 6d 5d 17 3e ec 12 9a 3d b2 8f 3b be a7 23 30 bd
       0.14781733 0.0752314 -0.18316534 -0.04300275
0000e0 cb 3d 14 be 6a 1a bc bc 97 7e f7 bd 44 52 f4 bd
       -0.14476697 -0.022961814 -0.12084692 -0.119297534
0000f0 73 0e 85 3c bb d6 9a 3d 95 35 d2 3c 38 ff 3f be
       0.016242241 0.07560488 0.025660316 -0.18749702
000100 27 42 82 3d 8e da d7 bc fb 1e 58 3a 3d be 3a 3d
       0.06360274 -0.026349332 0.00082443625 0.04559158
000110 69 71 2c 3e 85 74 0a 3c 65 64 aa 3c 0e 23 44 3d
       0.16840138 0.008450632 0.020799825 0.047884993
000120 69 2e 85 bc af 29 29 3e de e6 cf bc 3e 82 a9 3c
       -0.016257482 0.16519807 -0.02537864 0.020691987
000130 95 59 01 bc dd 3a 91 bd e0 ee 8b bd 05 9c cc 3d
       -0.007894893 -0.070913054 -0.06832671 0.09990696
000140 b0 a6 4e 3c 1a 5b 08 be ef ae 79 3d 3f 52 98 bb
       0.012612984 -0.13316002 0.060957845 -0.0046484764
000150 83 b8 34 3e cb 68 1c be be a6 66 bd 0f 13 46 be
       0.1764851 -0.1527435 -0.05631136 -0.19343208
000160 80 10 f5 3a 57 cd 20 bd 8c 15 f0 3d 8f 00 5a 3d
       0.0018696934 -0.039258327 0.1172286 0.05322319
000170 ff f4 56 bd 72 d1 d6 3b 4e e4 5b 3e 29 bd 76 bd
       -0.05247974 0.0065557295 0.2147381 -0.06023899
000180 4e c8 68 3e fc e6 41 be fc 9f 39 3e 17 af 35 3e
       0.2273266 -0.1893577 0.18127435 0.17742573
000190 f7 4f 0f be 10 ff 94 bd 76 a6 8c bd 47 39 77 3c
       -0.13995348 -0.07275212 -0.068676874 0.01508934
0001a0 b8 fb cb bb e2 f7 86 3d af e0 19 be 2f 91 d4 3c
       -0.0062250756 0.06590249 -0.15027116 0.025948135
0001b0 9e ec 4f ba 04 76 69 bc d6 0a 0c bd 88 39 6a bd
       -0.0007931682 -0.0142493285 -0.03419002 -0.057183772
0001c0 36 c7 b5 3d 8b 9b 87 be 89 4a e7 3c f2 6d a3 bd
       0.08875887 -0.26485857 0.028233783 -0.07979955
0001d0 b8 54 02 be d2 18 02 3e 42 df bd 3d 85 4a 03 bd
       -0.1272763 0.1270478 0.09271099 -0.03205349
0001e0 f5 01 97 3c 13 b5 54 bd 27 9e 0f 3c 25 f0 b3 bc
       0.01843355 -0.0519305 0.008765734 -0.021965096
0001f0 c9 5f d7 3d b9 41 39 be c7 2c 59 bd f7 bd 34 be
       0.105163164 -0.18091477 -0.05302122 -0.17650591
000200 dc 48 93 bd 34 71 b7 3b ce c7 b9 3d 9d ba 11 3d
       -0.07191631 0.0055982117 0.09071313 0.03557836
000210 1f 66 6b bd f6 bc 3e 3c 74 21 3c 3e fd 32 12 bd
       -0.057470437 0.0116417315 0.18372136 -0.035693157
000220 36 83 3b 3e 8a 6c 04 be a3 70 24 3e d6 8f 53 3e
       0.18311772 -0.1293203 0.16058592 0.20660338
000230 d1 36 b3 3c 3f 4c 56 be 1e c0 49 bd b4 5d 12 3c
       0.021876724 -0.20927523 -0.049255483 0.008933473
000240 50 76 b5 3b 7e 13 83 bd d2 e2 9b bc 2e f6 82 bc
       0.0055377856 -0.06400202 -0.019029055 -0.015986528
000250 22 57 31 3d 71 e9 a5 bd 76 24 0d bd 47 e0 d9 bc
       0.043295987 -0.08101166 -0.0344586 -0.026596202
000260 17 ee 91 3d 89 45 20 be 95 2d 32 bd 0d 41 a6 3c
       0.0712549 -0.15651526 -0.0435005 0.02029469
000270 fd fa 35 3c 9b 63 ac 3d 20 04 39 3d 72 2a 96 bb
       0.011107204 0.08417436 0.04516995 -0.0045826966
000280 f3 c7 00 bd 14 14 3f 3d 62 43 10 3d 78 ac bb bd
       -0.031440686 0.046650007 0.03522051 -0.09163755
000290 56 0d 86 bd f7 72 3d 3e 63 b4 ff 3d ed 1a 0e 3e
       -0.065455124 0.18500887 0.12485578 0.13877459
0002a0 ac b6 36 bd c9 da 06 bd c4 b8 f6 bd e2 b5 e0 bd
       -0.044607803 -0.032923494 -0.1204696 -0.109721914
0002b0 7c 32 6c 3c c1 ba 3e bd a9 92 60 bd 4b 9d 60 3d
       0.014416333 -0.04656482 -0.054827366 0.054837506
0002c0 5a 27 2f be c5 d5 ce bc 6d 92 42 be ff c4 2b be
       -0.17104855 -0.025248418 -0.1900117 -0.16774367
0002d0 f3 08 ba 3d 23 cf 5a 3d cf 6a 56 3e 00 03 3d 3d
       0.09083738 0.053420197 0.20939182 0.04614544
0002e0 34 95 0c 3d 2d 7f 85 3d e5 89 7a 3d 60 ed 69 bd
       0.03432198 0.065183975 0.061166663 -0.057111144
0002f0 22 bd 05 3d 29 1f d6 3d 76 ab 9a 3c 57 54 44 3e
       0.032651074 0.10455162 0.018880587 0.19172798
000300 23 2c 30 be 59 8b 99 3e 3a b2 3a bd 08 df ba 3d
       -0.17204337 0.29989126 -0.045580126 0.09124571
000310 58 1b 90 3d 30 95 14 be d9 fd b2 bd 1f 33 20 3d
       0.070364654 -0.14510036 -0.08739824 0.039111253
000320 6e 23 d1 bc 0a a1 45 3d 05 72 12 3e 15 74 a9 3b
       -0.02552959 0.048249282 0.14301307 0.0051713088
000330 c7 37 4b be 0a d4 83 3e 03 b7 47 3d 6e d0 a3 3d
       -0.19845496 0.2574771 0.048758518 0.07998739
000340 f8 54 d8 3b 76 d3 54 3d 15 2f 49 be 5f 99 90 bd
       0.006601926 0.051959477 -0.19646867 -0.07060503
000350 5c 58 01 3e b4 38 70 bd 97 ae 2b bd 76 d1 e1 bd
       0.12631363 -0.058647826 -0.04191455 -0.1102628
000360 82 d3 82 be bc 28 38 3e 1b f7 37 bd d5 06 30 be
       -0.25551993 0.17984289 -0.044913393 -0.17190106
000370 1e d6 9a bd bc 28 97 3d c7 0d eb 3d 7c eb 99 3b
       -0.07560371 0.07380816 0.11477237 0.0046972614
000380 a4 b3 08 3e 77 5c 25 3d a6 12 b7 3d 2d d7 d0 bd
       0.13349777 0.040371384 0.08939104 -0.101972915
000390 f1 41 7e bc 99 b6 5a 3d d6 54 c0 3b 1a 12 53 3e
       -0.015518651 0.053396795 0.005869488 0.20612374
0003a0 d1 d0 a4 bd 60 c9 61 3e a1 9f 54 bd 40 d7 d1 3d
       -0.08047641 0.22049475 -0.051910046 0.10246134
0003b0 7e 24 2e 3c d9 7a b4 bd 09 2a 76 3d 33 7e 93 bd
       0.010628818 -0.08812494 0.06009868 -0.07201805
0003c0 8c d8 6e 3d 5b bf a5 3c ac 09 22 bd 9f bc 16 3d
       0.058311984 0.020232847 -0.039560005 0.036800977
0003d0 cc f5 0e 3e 4f 0a 24 be e3 43 b0 bc 01 3e 2a be
       0.13960952 -0.16019557 -0.021516746 -0.16625215
0003e0 9a 77 82 bc ca 67 04 3d 77 a8 93 3d a0 77 e6 37
       -0.015926171 0.032325543 0.072098665 2.7473841e-05
0003f0 42 45 32 be df bb d9 bd 45 59 11 3d 8e 4a 3f bd
       -0.17409232 -0.10631537 0.035485525 -0.04670196

sequential/conv2d_2/Conv2D f4 [50, 4, 2, 40]
000000 79 2d 0f 3e f6 d9 5c 3d 58 91 39 3e 48 cc 02 3e
       0.1398219 0.0539188 0.1812185 0.1277324
000010 80 79 17 bd 4d 23 48 3d 97 89 fa 3c 1a 82 f8 ba
       -0.036981106 0.04886179 0.030583186 -0.0018959672
000020 9e 90 ae bc 05 00 71 3d 8c 48 15 3e 43 b9 d3 bd
       -0.021309193 0.05883791 0.14578456 -0.1033807
000030 8a 61 40 3d 82 24 f1 3d 63 56 8e 3d 94 34 19 bd
       0.04696802 0.117745414 0.06950071 -0.037403658
000040 c9 f7 d6 3c 10 86 c1 ba 5c 3f 05 3e a1 30 14 3e
       0.0262412 -0.0014764685 0.13012451 0.14471675
000050 23 03 84 bd a3 ba 66 bd 87 0b bb bd d3 84 cd bd
       -0.06445911 -0.056330334 -0.09133058 -0.100351
000060 80 e6 40 be 03 d1 78 bd 47 90 86 3d de 94 ab 3e
       -0.18837929 -0.060746204 0.065704875 0.33512014
000070 18 46 c0 bd 21 86 0d 3e 5a 8f 8d 3d d5 e7 1e be
       -0.09388369 0.13820697 0.06912108 -0.15518124
000080 a7 82 1d 3d eb 9d 2f 3e e4 2a 19 3d fc d6 ff 3c
       0.038454678 0.17150085 0.03739442 0.031230442
000090 68 ec 19 3e 83 6e fc 3d bd d2 15 3d d3 37 dc bb
       0.15031588 0.12325766 0.03657793 -0.006720522
0000a0 c0 fa 92 bd 26 ae 31 3e 96 50 de 3d 0f fe 25 3d
       -0.07176733 0.17351589 0.10855214 0.040525492
0000b0 95 35 1f 3d be 5b 15 3d 14 69 9d 3d 37 9b 81 bd
       0.03886946 0.036464445 0.07686058 -0.06328433
0000c0 f8 d9 80 bd 60 38 0a be a5 4d 61 bd ce fd 10 be
       -0.06291574 -0.13498068 -0.05500569 -0.14159319
0000d0 74 30 05 bd 70 66 13 3e 3d 1d 93 3d b2 1b 02 3c
       -0.03251691 0.14394546 0.07183311 0.007941173
0000e0 b7 b4 32 3d 56 40 ad 3d 6a 26 ae 3d a5 6e f6 bc
       0.043629374 0.08459537 0.08503421 -0.030082056
0000f0 e9 0d 0b bd d5 6a bc bd a6 ef 4c 3d 66 9f 88 bd
       -0.033948813 -0.09200064 0.050033234 -0.06671028
000100 b4 0d 94 be 33 53 e1 3d db 82 0e 3e a1 c4 76 3e
       -0.28916705 0.11002197 0.13917105 0.24098445
000110 84 77 a3 3d e3 2f cb 3d 23 b3 5d 3d 99 90 ee bd
       0.0798178 0.09921243 0.054125916 -0.116486736
000120 39 d2 fd bc 16 4d 1c 3e d3 70 a5 3d e4 aa c2 bd
       -0.030984031 0.15263781 0.0807816 -0.09505251
000130 ca 2f 8b 3d 37 b1 e8 3c 38 1b 8b 3c 40 5a 8a bc
       0.067962244 0.028404815 0.016980752 -0.016888738
000140 12 c5 c1 3d 74 9b 25 3e 26 ea 72 3d b9 8b 56 3e
       0.09461416 0.16172582 0.059305333 0.20951737
000150 0e ae b7 bd ee fa c7 bb 5b 4f 12 3e b5 c1 b4 bc
       -0.08968745 -0.006102911 0.14288084 -0.022065023
000160 29 8e b7 bd 6d 11 12 be 50 da 89 ba 30 20 ba bd
       -0.08962662 -0.1426446 -0.0010517333 -0.090881705
000170 28 05 3b bb f9 24 ae 3d bd 59 73 3e 4e f6 eb bd
       -0.002853701 0.08503146 0.23764701 -0.11521588
000180 30 05 d3 3c d9 8c 01 bd 33 9c 9c bc c9 cb bb 3d
       0.02575931 -0.031628463 -0.01911745 0.09169728
000190 f5 9b b7 bc 33 e2 65 bd 84 f6 29 bd da 8a 2d ba
       -0.022413233 -0.056123924 -0.04149486 -0.0006620117
0001a0 31 ba c2 bd a4 8f cb bc 7f 26 ca bd 4e 1d 6f 3e
       -0.095081694 -0.024848767 -0.09870624 0.23351023
0001b0 ce 26 e4 bd 93 ba 96 3d 23 da 04 be db 0a b3 bd
       -0.11140214 0.07359805 -0.12973838 -0.08742305
0001c0 3a d2 19 3d 95 d9 81 3d f5 d8 59 bd d3 0c d3 3c
       0.037554003 0.063403286 -0.053185422 0.025762951
0001d0 38 a5 f0 bc a8 2b 85 3d 8f 05 d0 3d cf b4 46 3c
       -0.029375657 0.065024674 0.1015731 0.012128069
0001e0 ba 4e df bb 74 7e 03 3e 97 ce d0 bd 1f 0c 0a 3d
       -0.006814805 0.12841207 -0.10195654 0.033702966
0001f0 64 f0 9b 3c 9f 56 1f be 53 79 d0 bd 80 be 43 bd
       0.019035526 -0.15560387 -0.10179391 -0.047789097
000200 85 b1 f1 bd 86 f7 a9 bd 6c 52 00 be 97 1a 82 bd
       -0.11801437 -0.082991645 -0.12531441 -0.06352728
000210 37 c7 48 bd f3 d0 85 3d 66 d6 36 3e a4 29 94 bd
       -0.04901811 0.065339945 0.17855224 -0.07234505
000220 64 92 3d 3d 12 3a fe 3c 50 7b c3 3d e6 ae 8f 3c
       0.046282187 0.03103355 0.09545004 0.017539453
000230 a2 2a e5 3c 6d 5e 8d bc 7e 56 0a 3d 1e 9e dd bc
       0.02797443 -0.01725694 0.03377389 -0.027052935
000240 9d 7f 7a be dd d4 61 bb 36 92 78 3c 64 a4 b8 3d
       -0.24462743 -0.0034459152 0.015171578 0.0901573
000250 8d 0c 47 3d da 81 b7 bc 93 85 c2 bd e4 26 29 be
       0.048595954 -0.022400785 -0.094981335 -0.16518742
000260 24 c0 6e bd 77 3d 8f bc 96 27 1d bd 99 47 33 bd
       -0.05828871 -0.017485363 -0.03836783 -0.043769453
000270 9b b2 a1 bc 09 f6 49 bd a8 39 51 bd 06 11 84 bd
       -0.019738486 -0.049306903 -0.051080376 -0.064485595
000280 71 60 02 3e 09 a2 06 3e 95 f5 72 bd 38 fb f4 3d
       0.12732102 0.13147749 -0.059316237 0.11961979
000290 d3 2f c3 3d 2d d4 48 3d 2d 48 62 3d b4 96 d1 3c
       0.09530606 0.04903047 0.055244613 0.025584556
0002a0 54 25 a7 bd 61 73 36 be 01 8d 84 bb b1 ca cd bd
       -0.08161417 -0.17817451 -0.0040451293 -0.10048426
0002b0 a5 6c a7 bc 0b 29 98 bc 6d 10 22 3e 3c 89 ba bd
       -0.020437548 -0.018574258 0.15826578 -0.09108207
0002c0 b6 0c 69 3d 10 62 c8 3d b0 02 30 bd 7d 4a 0e bc
       0.056896888 0.09784329 -0.042971313 -0.008684752
0002d0 a6 4f e7 bd 3f 47 71 3d e2 b2 2c 3c 5d c0 be bd
       -0.112944886 0.058905836 0.010540696 -0.09314034
0002e0 a4 f0 28 be 07 58 0c 3c 06 20 2e 3d 12 47 88 bc
       -0.16498047 0.008565909 0.04251101 -0.016635451
0002f0 6a 19 c4 bd 74 1b 14 3e 27 5d 6d 3d 65 d2 4e be
       -0.0957516 0.14463598 0.057950165 -0.20197447
000300 19 41 6d bd 83 44 ab 3b fd ac 2e be 65 9c 20 be
       -0.05792341 0.005226673 -0.17058177 -0.1568466
000310 b7 af 83 3c 90 89 8c bd c1 63 88 3d f5 3d d7 bd
       0.016074998 -0.068621755 0.066596515 -0.10509864
000320 68 34 09 3e 4c 12 80 3e 3c 87 18 be 8c 02 1a 3d
       0.13398898 0.2501396 -0.14895338 0.037600085
000330 bc 7e bc bc c3 3f 22 be 5d fb 18 be 2c e0 08 bd
       -0.02300965 -0.15844636 -0.14939637 -0.033416912
000340 4a 7f b7 3c 6e a9 a4 bd 7c 2a 20 3d 4e 75 65 3c
       0.022399563 -0.08040129 0.039103016 0.014005018
000350 fc 1e b2 3d 4b 4c 6f 3d 2b 33 64 3e a7 45 8c 3c
       0.08697316 0.058422368 0.22285144 0.017123057
000360 a6 4b 88 bd ce dd 00 3e c5 a9 b6 bd 69 fe e2 bc
       -0.06655054 0.12584612 -0.089191 -0.027709203
000370 7f 0d 3e 3d fd b7 81 3b c7 42 bd 3d c9 12 16 be
       0.04639959 0.0039587007 0.092412524 -0.14655603
000380 c5 94 8c be b0 53 8d bd 2f e0 06 bc c9 37 36 3e
       -0.27457252 -0.06900728 -0.0082321605 0.17794718
000390 7f f3 cc 3d 1f 5a 56 3c 55 58 2c 3e c6 83 b3 bd
       0.10007381 0.01308301 0.16830571 -0.08765368
0003a0 49 cb 80 3d c3 e4 e8 3d a1 f0 c8 bc c2 46 05 be
       0.062887736 0.11371758 -0.024528803 -0.13015273
0003b0 e6 77 f2 bc fd 1f c4 bd b9 29 61 bd 2d 6e c7 bc
       -0.029598188 -0.09576414 -0.05497143 -0.024344528
0003c0 5f 7f cf 3d 7d f3 b5 3d 8a bc ff bd 73 ac 53 3e
       0.10131716 0.08884332 -0.12487133 0.20671253
0003d0 54 f2 3b 3d 58 cf ef bb ec dd d9 bd 4b 14 0e be
       0.0458854 -0.0073184185 -0.10638031 -0.13874929
0003e0 9d 45 49 be 20 df 24 be 11 6b d0 3d 34 b0 af bc
       -0.19655462 -0.1610074 0.10176671 -0.021446325
0003f0 0b 10 55 3a 22 61 7c bd b2 b0 03 3e 6d c4 30 3d
       0.0008127696 -0.06161607 0.12860373 0.043156076

sequential/conv2d_3/Conv2D f4 [50, 4, 2, 50]
000000 10 de ad bd 0f ac e4 3d 76 44 a8 3d d9 13 8a bc
       -0.08489621 0.1116563 0.08216183 -0.016855167
000010 49 43 2a bd 4e ac de 3d c3 16 5b bd c5 9d c5 3d
       -0.041568074 0.10872708 -0.053488504 0.09649233
000020 f6 22 62 3d 68 f3 90 bd 1d 6c f5 bc 93 eb 77 bd
       0.055209123 -0.07077676 -0.029958779 -0.060527395
000030 ec 23 92 3d f1 a7 55 bd 60 bc ab bd ee 4b 12 3d
       0.07135758 -0.052162115 -0.08385539 0.035716943
000040 ed b4 02 3e e8 3a 8d 3c a5 f7 1b 3d 77 2d a8 3c
       0.1276433 0.017240003 0.03807797 0.020529492
000050 7d c6 b8 3d 88 aa a7 bc e7 f5 45 3d 2c 4d 3d 3e
       0.09022234 -0.020467058 0.048330214 0.1848647
000060 15 59 36 3d 0d 02 e0 bd 19 a4 4a bd e4 45 99 3e
       0.04451855 -0.10937891 -0.049472902 0.29936135
000070 ab a5 fb 3d c9 ea 6f 3e f2 a5 71 3e 8c be 52 bd
       0.12287458 0.23429407 0.2359846 -0.05145125
000080 cc 94 b2 bd f6 fa 24 3e 01 34 ba bd 85 c5 4d bd
       -0.08719787 0.16111359 -0.0909195 -0.050237197
000090 3d bd bc bd 99 2d 1e bd 2b a9 5e bd cf ad 5f bd
       -0.09215782 -0.038617704 -0.05436055 -0.054609116
0000a0 64 8c 71 3d 33 23 0a 3c d1 ff 2c be 88 d5 0f be
       0.058971778 0.008431244 -0.16894461 -0.140463
0000b0 37 02 54 3d 2e 23 ec 3d cf 85 e3 bd 94 21 69 bd
       0.051759925 0.115301475 -0.11109506 -0.05691679
0000c0 1d f5 0a 3e ee 27 60 3b 3d 2c a0 bd 0d 3c e0 ba
       0.13570066 0.0034203487 -0.07820938 -0.001710774
0000d0 4a cf 56 3c 9b 17 66 bd df da 12 3e 4d b2 27 3e
       0.013110945 -0.056174856 0.14341305 0.1637661
0000e0 11 ca 0f 3d 7c cf 0e 3e 5e 2d 82 3e c3 60 28 be
       0.035104815 0.13946337 0.25425237 -0.16443162
0000f0 2e 1a d1 bd 69 80 1b be 70 b2 35 bd a0 ff c2 bd
       -0.102100715 -0.15185703 -0.044359624 -0.09521413
000100 1a aa be bd 63 18 7d 3e f6 5b c9 3d 28 76 af bd
       -0.09309788 0.24716334 0.09831993 -0.085674584
000110 6a 44 0f be cb 57 96 bc d6 48 3f bc 2c 00 54 3d
       -0.13990942 -0.01835241 -0.01167508 0.051757976
000120 28 ca 2a 3e af 51 fd 3d ea 36 bf bd 88 ac ad 3d
       0.16678679 0.123690955 -0.09336646 0.08480173
000130 95 e8 74 bd 5d 9c 7f 3e f3 0e 8b 3e 5a 3b 40 3e
       -0.05979212 0.24961992 0.27159843 0.18772641
000140 38 50 70 3e df a5 01 3e 38 25 16 be db 04 32 3e
       0.23468101 0.12660931 -0.14662635 0.17384665
000150 ec 1b 82 bd b2 fc 05 3d cd a9 19 be 7a 04 19 be
       -0.06352982 0.032711692 -0.1500618 -0.14943114
000160 10 b7 54 be 37 74 bf 3c eb 10 c2 3d e4 99 05 be
       -0.20772958 0.023370845 0.09475883 -0.13046986
000170 13 b7 46 be bc 04 9c bc 64 fa 43 3d 49 79 21 bc
       -0.19405775 -0.019045226 0.047846213 -0.009855577
000180 2b a1 72 3e 88 34 59 bd b8 54 07 3d 86 76 20 3d
       0.23694293 -0.053028613 0.03303978 0.039175533
000190 4b 63 1c bc 03 af 2f bd a7 f1 fd 3d 0f aa 82 bd
       -0.009545158 -0.042891514 0.12399607 -0.06380092
0001a0 0f ab bc bd 12 cb e0 3c 9d 3d a4 3d 56 0c 71 3d
       -0.09212314 0.027440581 0.08019564 0.058849655
0001b0 fc dd 55 3d 08 52 54 3d c9 ed 0f ba e4 b1 9a bd
       0.052213654 0.051836044 -0.000549045 -0.07553461
0001c0 34 9e 6e bc 5a 90 f8 3b ef 82 16 3d e5 61 84 bd
       -0.014564086 0.0075855674 0.03674596 -0.064639844
0001d0 ea ed fb 3d c0 c0 d9 3c ab c3 22 3d fa 16 91 bd
       0.12301238 0.026581168 0.039737385 -0.070844606
0001e0 a1 f9 3e 3c 1a 0e 9a 3d 70 92 f9 3c 2e 73 75 3d
       0.011656196 0.07522221 0.030465335 0.059924297
0001f0 51 72 b2 bd 01 40 69 bd 0b af 7b 3d 93 df 8f 3d
       -0.087132104 -0.056945805 0.06144623 0.07025065
000200 0d 45 58 3d c8 d1 b9 3d 31 11 86 3d f7 24 ee bd
       0.052800227 0.09073216 0.06546248 -0.11628144
000210 4e e8 c9 bd 94 fc 62 3d 61 b8 a8 bd bc 06 67 bd
       -0.09858762 0.05541666 -0.082382925 -0.056402907
000220 47 e0 cb bd 4a df 70 3d 8a 10 11 3c dd f7 31 be
       -0.09954887 0.058806695 0.008854041 -0.17379709
000230 57 89 77 bd 01 78 d3 3b e9 b9 f1 3c 6f 91 06 be
       -0.06043371 0.0064535146 0.029507594 -0.13141416
000240 0a 34 67 bd 72 fe 5a bc 4a 4b bf bd 40 db f7 37
       -0.056446113 -0.013366329 -0.09340532 2.954679e-05
000250 73 a6 09 3d 85 1a a9 3d c6 a3 57 3d 03 aa 5f 3c
       0.033606004 0.08257011 0.05264642 0.013651374
000260 b1 bc 22 3e 7a 44 16 be 42 12 d2 3d 5e a7 ad 3d
       0.15892293 -0.14674559 0.10257389 0.084791884
000270 8d e0 3a 3e ff 3c 32 3d 0d f1 8c 3e 5a 58 11 be
       0.18249722 0.0435152 0.27527657 -0.1419386
000280 5f 69 80 bd 5c 3a 6b bc 7f 4d 7a 3d 46 02 fb 3b
       -0.06270098 -0.014357176 0.061109062 0.007660183
000290 5c d7 53 bd 06 f4 49 3e 8f 8f 28 bd 5d cf fc bb
       -0.051719055 0.19721994 -0.041152533 -0.0077151493
0002a0 43 98 e7 bd 66 c1 f0 bd 7a 12 6e 3d d1 cd 15 3e
       -0.113083385 -0.11755638 0.05812309 0.14629294
0002b0 41 b9 21 3e a3 38 ef 3d 49 7c 46 bc b9 c8 31 3d
       0.15793325 0.116807245 -0.012114593 0.043404315
0002c0 52 ec 8c 3c d1 a4 d9 3d dd 87 65 3e 4c db 07 3e
       0.01720253 0.10627139 0.22415109 0.13267249
0002d0 e0 9d 78 3d 0c 3d 45 3c c7 de 84 3d 44 0b 63 3c
       0.060697436 0.0120384805 0.06487804 0.013857666
0002e0 9b 53 35 3b a7 b1 09 3c 3e 2b 09 be 3b ae cd bd
       0.002766824 0.008404172 -0.13395402 -0.100429974
0002f0 85 c9 fb bd d2 d6 aa bd 36 4b 59 bd 1d 28 28 3d
       -0.12294296 -0.08341755 -0.053050242 0.04105388
000300 24 d6 0e 3d 16 52 05 be ed e0 4e bd 6c 76 41 bd
       0.03487219 -0.13019595 -0.050507475 -0.047232077
000310 54 ee 61 3e 28 bc 82 3c 03 1e e8 bc ae 0a 1f bc
       0.22063571 0.01595886 -0.028334623 -0.009707136
000320 83 a2 06 be fc 5c 05 3d 7e 6a dc bd 01 ab fe bc
       -0.13147931 0.03255938 -0.10762499 -0.0310874
000330 91 aa 3f bd a9 e8 b9 bd 7b a6 75 bc 3b 1e 47 bd
       -0.046793524 -0.090775795 -0.014993305 -0.048612814
000340 a0 f3 99 bd 99 22 36 3e df 50 b5 3d 09 70 3b bd
       -0.07517171 0.17786635 0.088533156 -0.045761142
000350 83 6f c3 3c 12 95 48 3c 63 43 19 bc ee 3b 52 be
       0.023856884 0.012242572 -0.009354445 -0.20530674
000360 a4 1c 0b 3e 57 52 04 be 9e 5d 2e 3e 57 ad 58 bd
       0.13585144 -0.12922035 0.170279 -0.052899685
000370 c3 4e 85 bc 27 f9 f8 bd 4c 53 19 be 06 78 b4 3d
       -0.016272908 -0.12156897 -0.14973181 0.08811955
000380 56 1b 26 3c 07 3c c2 bd 5a 50 c9 bd 2f 06 fe 3d
       0.010138353 -0.094841056 -0.09829779 0.12403523
000390 49 24 0f be a9 0c ac 3c 9d e7 7b 3d 06 87 40 be
       -0.13978685 0.02100213 0.06150018 -0.18801507
0003a0 53 2a f8 bd 33 5f ba bd 2a 59 9b bd 96 d2 58 bd
       -0.12117448 -0.09100189 -0.07585366 -0.052935205
0003b0 88 dc 96 3c fd 03 8b bc ad f8 be 3c 8f 3c 2a bd
       0.018415704 -0.016969675 0.023311937 -0.04156166
0003c0 0c b7 4c ba 7f 0e 21 bd 38 3c 8a 3d e6 56 ae bd
       -0.00078092585 -0.039320465 0.06749767 -0.08512668
0003d0 60 21 9f bd 23 cf 85 3d a2 bc 0f be 16 d0 47 3d
       -0.07770038 0.06533649 -0.14036801 0.04878243
0003e0 50 53 32 3c ad d1 e5 3c 4b 73 47 bc 15 7d fd 3c
       0.010884121 0.028054083 -0.012173484 0.030943433
0003f0 cd 1b e7 3c b4 00 a0 bd 6a 71 7c ba 58 f8 c7 bd
       0.028211499 -0.07812634 -0.0009629937 -0.09764165

sequential/conv2d_4/Conv2D f4 [60, 4, 2, 50]
000000 47 59 04 bd f2 cf 6a bd 07 79 58 be 73 5b b4 3b
       -0.032311704 -0.05732722 -0.21139918 0.0055040657
000010 b0 f2 3b 3d c3 6b 17 be 26 8d 58 bd 30 ff 80 3d
       0.04588574 -0.14787202 -0.052868985 0.06298673
000020 47 02 b0 3d 0d eb 82 bd 0f e8 a7 3d ee 62 9a 3d
       0.08594184 -0.06392489 0.081985585 0.075384006
000030 8c 05 46 3e 6c 7c 23 3e b3 63 15 3c 19 3b 48 3b
       0.19338053 0.15965432 0.009118008 0.0030552803
000040 2a 49 f8 3c 28 59 91 bd 5d 63 8d 3d bd 70 f2 3c
       0.030308325 -0.07097083 0.06903718 0.029594773
000050 90 7a 99 3c 5a 70 af 3c 30 af 5a bd 0d cb e0 3c
       0.0187352 0.021415878 -0.053389728 0.027440572
000060 d8 95 4f be b8 59 56 3d 9a fd 9d 3d f4 e0 bf 3d
       -0.20272005 0.052331656 0.07714386 0.09369078
000070 7c 45 d8 3c ca a0 f8 3d a3 87 94 3d 49 22 58 3d
       0.02640032 0.12140043 0.07252433 0.052767072
000080 91 d6 49 3d d0 15 b1 bd c2 cc f6 3c 6a 34 f4 3d
       0.049276892 -0.086467385 0.030126933 0.1192406
000090 11 82 80 3c 20 f3 c4 3d d2 0b a7 be 12 bb 09 be
       0.01568702 0.09616685 -0.32626206 -0.13450268
0000a0 75 72 8e bd 71 2e 3f 3e 19 16 f2 3d 94 07 fd 3b
       -0.06955425 0.1867006 0.11820621 0.0077218506
0000b0 79 97 63 bd be 80 dc 3d a7 29 a3 3c 60 d6 06 be
       -0.055564377 0.10766743 0.019917322 -0.13167715
0000c0 c9 de c9 bd e7 be ad bb b4 c2 b3 bd 24 b5 06 3c
       -0.09856946 -0.0053022983 -0.08777371 0.008221898
0000d0 94 c6 8c bd c6 17 d8 3d d6 25 40 3d 18 d9 11 be
       -0.06873813 0.105514094 0.046911083 -0.14242971
0000e0 e4 5b 76 bd 4f df a3 3c fd 20 e7 bb 0c 51 3a be
       -0.060146227 0.020003943 -0.007053493 -0.1819498
0000f0 90 ef 54 bc 40 b2 d3 bd 81 24 09 3e 0d bd 0b 3e
       -0.012996569 -0.10336733 0.13392831 0.13646336
000100 88 73 51 3d 80 81 63 b9 a6 c6 7a 3d 83 25 8b bd
       0.05113557 -0.0002169665 0.061224602 -0.06794264
000110 31 15 37 3d 9a c7 17 3e de 92 c3 3d 9e 66 ab 3d
       0.044697944 0.14822236 0.09549497 0.08369182
000120 c6 5a 31 be f5 34 aa 3d 4a 7c 26 be 52 ae 45 3d
       -0.17319784 0.08310882 -0.1625835 0.048261948
000130 a3 76 28 3e 89 aa 1e 3e 64 99 af 3d 2a 1f 9d 3d
       0.16451506 0.15494741 0.08574179 0.0767196
000140 ee f0 b3 3d f5 d5 1d 3e fc 96 93 3d 33 11 15 3b
       0.08786188 0.1541365 0.07206532 0.0022745847
000150 2f b4 dd bc f2 ef c9 3d 52 c8 85 3c 8e bf d4 3d
       -0.027063457 0.09860219 0.016330872 0.10388099
000160 36 34 51 be 90 13 3b bc 53 90 19 bd e8 8a 9b bd
       -0.20430073 -0.011418238 -0.037491154 -0.07594854
000170 cc 0e 01 3e e0 a6 0f be c8 97 8d bd 1f c6 2e 3e
       0.12603301 -0.14028502 -0.069137156 0.17067765
000180 03 7f 07 3d 76 28 32 bd 1b 09 96 3d c8 50 9a bc
       0.033080112 -0.043495618 0.073259555 -0.018837348
000190 bd a4 2a 3d dc 12 ae bd c8 ef 0d be 06 6b 7e bc
       0.041661013 -0.08499691 -0.13861 -0.015528446
0001a0 a3 ca 00 bc 9c 5c 2d bc 16 6f c2 bc 4f 9c 0b 3c
       -0.007860812 -0.010581162 -0.02373461 0.008521154
0001b0 87 fc 3a bd 78 bb a0 3c 50 5f 3d bd e0 28 7e 3d
       -0.045650985 0.019620642 -0.046233475 0.0620507
0001c0 7a f1 32 3e f2 94 aa bd 47 af 50 bd 49 ab b5 bc
       0.17474928 -0.0832919 -0.050948408 -0.022176402
0001d0 39 6d 58 bd 74 f3 95 bc 19 e7 fd bc 31 25 ad bc
       -0.052838538 -0.018304564 -0.030993985 -0.021135898
0001e0 fe f6 7c 3d 02 eb 99 bd c5 3a 3f 3e 53 e6 05 3d
       0.061758988 -0.07515527 0.18674763 0.032690357
0001f0 b8 d2 7e 3c 1b 95 a5 bc de d2 64 bc 40 a8 f0 3c
       0.015553169 -0.0202127 -0.01396629 0.029377103
000200 f7 70 b8 bd d2 20 db 3d 16 ad c0 3c b8 dd 9a 3d
       -0.09005921 0.10699619 0.023520034 0.07561821
000210 2a 2d 01 3e 33 6f 8f 3d 1f d5 5f 3d b9 b3 c7 bd
       0.12614885 0.070036314 0.054646607 -0.09751076
000220 87 eb 24 bd 16 67 2c 3d 86 15 f9 bc a3 0f 8f 3c
       -0.04026368 0.042090498 -0.030405771 0.01746351
000230 b5 ce f0 bd 16 c9 98 3e 20 32 02 3d c4 55 80 3d
       -0.11758176 0.29840916 0.031786084 0.062663585
000240 87 ce fd 3b 6c 36 8e 3c 7e 52 86 3d 9a bc 36 be
       0.0077455672 0.017359935 0.06558703 -0.17845383
000250 49 fb 49 bd 9a 46 a8 3d 4a e1 23 3e ff a7 a4 3d
       -0.04931191 0.08216591 0.1600391 0.08039855
000260 9f 50 d9 bc a6 a9 71 ba f6 de e2 bb e4 ac 2d be
       -0.026527701 -0.00092187 -0.0069235517 -0.16960484
000270 df 6f 87 bd 1b 93 0d 3c 34 f9 62 3d 6b 9a 4e bd
       -0.066131346 0.00864103 0.05541344 -0.050440233
000280 ba 77 e5 bd 66 e4 5c bd 19 ea 4c 3d 38 a4 32 bc
       -0.11204477 -0.053928755 0.05002794 -0.010903411
000290 64 2d be bb 99 f8 3d 3d 01 d3 eb bc fd 90 4b 3d
       -0.005803751 0.04637966 -0.028787138 0.04969882
0002a0 84 41 19 bd 5a b8 6a 3c f7 7a 2a 3d 56 14 25 3d
       -0.037415996 0.014326179 0.041621175 0.040302597
0002b0 b1 ec 80 3d 09 6f a1 bd 3a ee 73 bd e9 a4 6e bd
       0.06295145 -0.078825064 -0.059553362 -0.05826274
0002c0 cd be b6 3d 84 74 b6 3d 73 ae 29 bd 62 05 3f 3d
       0.08923111 0.08908942 -0.041426133 0.046635993
0002d0 3e ce 6a 3d 4b 6c 15 3d 63 af 14 bb 11 1f c3 bd
       0.057325594 0.03648023 -0.0022687546 -0.0952741
0002e0 6b a5 57 3d 83 83 6c bd 82 5c 35 bd d3 82 e6 3d
       0.05264799 -0.057742607 -0.044277675 0.112554215
0002f0 fc 6e 6b 3d 64 a3 5f bd a8 b0 f2 bd b2 4b b1 bd
       0.05747889 -0.05459918 -0.11850101 -0.08657016
000300 d3 92 c0 ba 02 b8 8f bd a4 ed c6 bd 3c 78 95 bd
       -0.0014692195 -0.070175186 -0.09713295 -0.072983235
000310 a1 e5 50 3d 58 58 91 bd 36 05 ab 3d f5 14 40 bd
       0.05100024 -0.07096928 0.08350603 -0.046894986
000320 d0 24 7f bd 51 05 39 3c 21 85 a0 bd 66 ab 55 bd
       -0.062290967 0.011292771 -0.07837892 -0.05216541
000330 7e 65 d1 bc 18 52 df bd f6 83 3a 3e 6b b6 bb bd
       -0.02556109 -0.1090433 0.18214402 -0.09165653
000340 c5 d2 19 3d cc 9b 2d 3c ae d6 7e be 4b 41 0b 3e
       0.03755452 0.010596227 -0.24886581 0.13599126
000350 aa 84 a4 3d d9 25 35 bc b6 4f cb bc 84 32 9c 3d
       0.08033116 -0.011056387 -0.024818283 0.076268226
000360 d6 0d ad 3c 1f 22 d8 bd 77 0a a1 bd 0a a2 32 be
       0.021124762 -0.10553383 -0.07863324 -0.17444625
000370 bb 71 72 3c ba 2f 55 be 49 ce 93 3d e8 f3 a0 3d
       0.014797623 -0.20818987 0.0721708 0.078590214
000380 50 12 99 bc 3e bb 81 3d dd 2d a8 bd 07 b8 8d 3d
       -0.01868549 0.06334542 -0.08211873 0.06919866
000390 01 ed b7 bc fe b8 58 3c 67 bf b7 bd 46 94 35 bd
       -0.02245188 0.013227699 -0.08972054 -0.044330858
0003a0 ba 44 c0 3d dd 6e 2b 3d 32 0f 1e 3e 85 0e 52 bd
       0.093881086 0.041853774 0.15435484 -0.05128338
0003b0 b0 08 c3 3d 04 24 83 3c 79 f9 a8 bd 1e 82 9f 39
       0.095231414 0.016008385 -0.08250708 0.00030423788
0003c0 c9 86 e6 bd ef 05 62 3e 28 d9 f8 3d cc 0f a5 3b
       -0.11256177 0.22072576 0.12150794 0.0050372835
0003d0 02 b7 11 be ca f9 af bc 00 5d 02 be ce c4 08 be
       -0.14229968 -0.021481413 -0.12730789 -0.13356325
0003e0 93 72 12 be 98 02 8d bd 73 8e 08 bd 63 25 d4 bc
       -0.14301519 -0.0688526 -0.033338975 -0.025896734
0003f0 e7 a4 bc 3d 63 1f 2f 3b 12 aa d3 ba ca 37 0b bc
       0.0921114 0.0026721589 -0.0016148707 -0.008497188

sequential/dense/BiasAdd/ReadVariableOp f4 [50]
000000 3b 72 72 bd 25 bf 9f bc 60 11 19 3a c6 19 79 bd
       -0.05919097 -0.019500325 0.0005839076 -0.060815595
000010 5d 4b 89 ba 76 8e 70 3d ea 1a 3c 3c 89 01 20 3d
       -0.001047473 0.05872961 0.011481026 0.039063964
000020 5a 9c cf bb 79 a6 40 3d 2b 15 37 bd b2 a5 27 bd
       -0.006335777 0.04703376 -0.04469792 -0.040929504
000030 cb 76 be 3d 0a bb 63 3d f9 e6 26 3d a6 82 a5 3c
       0.09300002 0.055598296 0.040747616 0.0202039
000040 49 09 9b 3d d3 f5 46 3d b0 d4 7a bb b1 e8 92 3d
       0.075701304 0.04857428 -0.0038273744 0.071732886
000050 fb e9 b4 bd a4 90 21 bd a9 f1 15 3d ca 9b 6d 3b
       -0.08833691 -0.03944458 0.03660742 0.0036256188
000060 e1 a6 a7 3c 52 74 9e bd 16 a2 1a 3d 15 d0 d8 3d
       0.020465316 -0.0773703 0.037752233 0.105865635
000070 86 a0 82 3c 22 a5 2c 3d 1d 6d a5 bd 7c 2b 59 bc
       0.015945684 0.04214967 -0.08077452 -0.013254996
000080 df e9 f9 3b 52 23 3d bc 18 b9 58 bd 25 f9 05 3e
       0.0076267566 -0.011544066 -0.052910894 0.13083322
000090 04 a4 ab bc de 22 7a bd 2a ee ee bd d9 56 a1 3b
       -0.020952232 -0.06106841 -0.1166652 0.004923683
0000a0 1e d7 8c bc 01 dc d0 bd 70 c4 a7 bd e3 f1 87 3d
       -0.01719242 -0.101982124 -0.08191764 0.06637933
0000b0 46 dd a9 3b 33 48 81 bd 89 89 d1 bd 83 d9 91 bc
       0.0051838486 -0.06312599 -0.10231311 -0.017803913
0000c0 06 8e 2b 3d e4 80 ca bc
       0.04188349 -0.024719663
