app/src/main/ml/model_us8k.tflite (tflite, 305828 bytes, 12 tensors)

sequential_2/conv2d_5/BiasAdd/ReadVariableOp f4 [40]
000000 72 8d 42 bb 53 e3 08 39 a6 86 55 3a 8f 14 3d 3c
       -0.0029686359 0.00013054656 0.00081453694 0.011540546
000010 e3 4b 4d bb 33 fe 87 3a 8d 06 29 39 d9 42 d0 bb
       -0.003132575 0.001037544 0.00016119536 -0.006355625
000020 19 7f 9d bb b3 35 b5 bb cf 80 00 bc 67 b9 ce 3a
       -0.004806411 -0.005530083 -0.00784321 0.0015771807
000030 95 07 ab bb 0b 30 45 3b a0 9e 51 3c 1a 5d 07 bb
       -0.0052194097 0.003008845 0.012794167 -0.0020654858
000040 ef 67 0a 3b e8 23 30 bb 2a 46 5d 3a de 3b 83 bb
       0.0021119078 -0.002687687 0.0008440936 -0.0040049395
000050 b6 60 b9 3a ea 21 c7 b9 e8 17 85 bb d2 c3 3f ba
       0.0014143202 -0.00037981506 -0.0040616877 -0.0007315251
000060 06 3f e7 bb e0 e5 08 bc cf f0 52 bb 16 9b 58 3a
       -0.0070570735 -0.008355588 -0.003218699 0.00082628557
000070 a1 de 9c bb c6 1e f5 bb dd 0f a6 bb 06 57 0c 3c
       -0.0047872816 -0.007480475 -0.005067809 0.00856567
000080 3b 48 83 bb 22 41 68 bb 0b 9f 31 3b f6 c4 87 39
       -0.0040064133 -0.0035439213 0.0027102854 0.00025895954
000090 d2 b4 5c 3c 62 df 95 ba aa f5 f2 ba bf a6 33 bc
       0.013470845 -0.0011434371 -0.0018536348 -0.010965048

sequential_2/conv2d_6/BiasAdd/ReadVariableOp f4 [40]
000000 c4 36 3c bd 84 af 4c 3d db 2c 7c bd 9d f5 42 ba
       -0.045950666 0.049972072 -0.061566215 -0.0007437112
000010 ee ee 50 bd 54 65 62 bd c1 d2 f7 ba 34 3e c1 bb
       -0.05100911 -0.055272415 -0.0018907414 -0.005897308
000020 e8 dd 8e bd 75 12 70 3b 13 98 7a bc f1 52 d5 bc
       -0.06975919 0.0036632095 -0.015295046 -0.026040526
000030 cf 33 67 bd 94 ff 14 bb 83 36 ad 3b 5f 04 50 bd
       -0.056445893 -0.0022735344 0.0052860393 -0.05078542
000040 a3 c6 85 bd 77 2c aa bc ca 1d 9c bc 0e ac 7b bd
       -0.065320276 -0.020773156 -0.019057173 -0.06144338
000050 18 6c ae bc 7f a8 dc 3a c4 bd 9e bd 52 dc 77 bd
       -0.021291777 0.0016834884 -0.07751039 -0.06051285
000060 d8 3e ba bc 3f 9d 39 3c a7 64 fb 3c aa ec 8b bb
       -0.022735044 0.011328994 0.030687643 -0.004270156
000070 af e7 14 bc 97 dd 30 bc 2b b9 58 bd 68 bd a2 bd
       -0.009088441 -0.010795019 -0.052910965 -0.079462826
000080 c3 10 e8 bc 1f 01 e4 ba 9d 4b d7 3b f9 9a 14 bd
       -0.028328305 -0.0017395354 0.006570293 -0.036280606
000090 4b 9d 4c bd 3b de a2 bc c8 d4 ae bc 97 80 ff bc
       -0.049954694 -0.019881358 -0.021341696 -0.031189246

sequential_2/conv2d_7/BiasAdd/ReadVariableOp f4 [50]
000000 c0 40 7b bd 5f a9 dc bd 76 f9 b6 3c 36 cc 8c 3c
       -0.061341047 -0.107744925 0.02233575 0.01718722
000010 37 fd bc 3d 80 30 fc bd 14 3e 67 be 70 98 82 3e
       0.092279844 -0.12313938 -0.22582275 0.25506926
000020 63 f8 2b be f5 d7 c1 bd 84 65 70 3d cb 92 ac 3d
       -0.16793971 -0.09465019 0.058690563 0.08426436
000030 05 a6 f9 3c 57 7c 88 3b 86 5a a8 bd 7e 6c b2 bd
       0.030474672 0.004165213 -0.08220391 -0.087120995
000040 4a 08 da 3e 58 d0 98 bd e5 e3 f1 3b 7e 01 34 be
       0.4258445 -0.074616134 0.0073819035 -0.17578694
000050 b7 02 aa bd e4 52 65 3b ba 61 06 be c9 ea 54 bd
       -0.08301299 0.0034992034 -0.13123217 -0.05198172
000060 d7 f5 89 bb f8 1f bf 3d 90 55 5a bc 75 7c 7c 3d
       -0.0042102146 0.093322694 -0.013326064 0.06164213
000070 ff 40 08 bd 3f 53 11 be e0 f1 e7 3d f3 ce 16 be
       -0.03326511 -0.14191912 0.11325431 -0.14727382
000080 a2 0f f0 3d b3 a2 07 3d 25 ba 68 ba 44 b6 f3 3d
       0.11721732 0.033114146 -0.00088778354 0.11899999
000090 32 d0 e7 bd 0a 63 02 3c 3c d3 8f 3d e8 fa 02 bd
       -0.11319007 0.007958183 0.07022712 -0.031977564
0000a0 bd 33 e3 bd 68 1b 8b 3d ed c1 b2 bd 3a b6 09 be
       -0.11093853 0.06792337 -0.08728395 -0.1344842
0000b0 14 a9 fb bd 5d 9c 9e 3c c7 57 68 bd f0 53 95 bc
       -0.122881085 0.01936167 -0.056724336 -0.018228501
0000c0 73 e8 00 bd ab ee 0f bc
       -0.03147168 -0.00878493

sequential_2/conv2d_8/BiasAdd/ReadVariableOp f4 [50]
000000 e3 a3 4d be 3f 7e 63 bd 88 70 53 be 12 07 63 be
       -0.20082049 -0.05554032 -0.20648396 -0.22170666
000010 5e 0b 88 be 5c a5 86 3c 11 87 e1 bd cb da e9 3d
       -0.26571172 0.016436271 -0.1101209 0.114186846
000020 24 29 49 be 1c f7 57 bd 71 e5 17 be ab c0 b2 bd
       -0.196446 -0.052725896 -0.14833619 -0.08728155
000030 78 8f 59 3d c7 1c d0 bd 9c 69 0c be 98 7a af bc
       0.053115338 -0.10161739 -0.13712162 -0.021420762
000040 43 f8 c9 bd 09 43 18 be 67 56 b1 bd fd 6c 29 be
       -0.09861805 -0.14869322 -0.08659058 -0.16545482
000050 0d bf d4 bd c4 7a 94 be e8 ab a8 bd 98 ad a9 bd
       -0.103880025 -0.28999913 -0.082359135 -0.082850635
000060 9a 45 de bd 89 8a 9c be 5d fe 57 be 9d b7 7d be
       -0.10853119 -0.30574444 -0.21093126 -0.24777074
000070 15 6d 5d be e2 d8 f0 bc b1 10 28 be 92 7e 9e bd
       -0.21623643 -0.029400293 -0.16412617 -0.07738985
000080 25 98 84 bd af b1 d5 bd 99 11 05 be ca 13 b1 bd
       -0.06474332 -0.10434281 -0.12994994 -0.086463526
000090 9e e5 db bd f4 af 3d bc 9f 00 8c be df 42 ae bd
       -0.107371554 -0.011577595 -0.27344224 -0.085088484
0000a0 41 76 8f bd 38 7c 84 be a6 68 32 be b5 05 12 be
       -0.07004977 -0.2587602 -0.17422733 -0.1425999
0000b0 2f ac c3 3b 38 43 fb bd 19 d1 73 bd 5f 50 b6 bd
       0.0059714536 -0.1226868 -0.059525583 -0.08902048
0000c0 a5 06 e5 bc 4c 3f 1b be
       -0.02795727 -0.15160865

sequential_2/conv2d_9/BiasAdd/ReadVariableOp f4 [60]
000000 32 5a ce bd ad 43 ea bd 24 95 2b be c8 8b 13 be
       -0.10075797 -0.114386894 -0.16756111 -0.14408791
000010 5a 4c 54 3d 55 f2 0a be a9 57 20 be b8 ac 1b be
       0.051830627 -0.13569005 -0.1565844 -0.15202606
000020 25 15 3a bd 37 f2 b1 ba 5c 40 3f bd 92 5b af bc
       -0.04543032 -0.0013576214 -0.046692237 -0.021405969
000030 f6 6c 83 bd 34 25 ee bc c3 97 db bd 17 ad 13 bd
       -0.06417267 -0.029070474 -0.107223056 -0.036053743
000040 30 9f 5f bd 6c dc e2 bd 34 eb a1 3d 7d 48 3f be
       -0.054595172 -0.110771984 0.079061896 -0.18679996
000050 36 a7 27 3d dc cf 3b be ba f7 e4 bd 3a 5f 6d be
       0.04093095 -0.18341011 -0.111800626 -0.23180857
000060 70 bb 4a bb 8f 9a 25 bd 4f cb ef b9 e6 97 86 be
       -0.0030934475 -0.0404306 -0.0004573711 -0.26287764
000070 02 d8 db 3c f9 56 d3 bd 82 53 47 bd d0 9d ee bd
       0.026836399 -0.10319323 -0.048663624 -0.11651194
000080 28 a5 02 be 2c f5 14 bd c4 0e 70 be f9 f8 8a ba
       -0.12758315 -0.036366627 -0.23443133 -0.0010602764
000090 28 7a 09 bd 9e 5c af bd df 1d 84 bd c0 37 52 bd
       -0.033563763 -0.08562587 -0.0645101 -0.0513227
0000a0 72 7b 34 be 1b 27 85 be 81 eb 3b 3c 35 15 b3 3c
       -0.17625216 -0.26006398 0.011469723 0.021860698
0000b0 84 99 5e 3d 1d a3 e3 bd 05 c0 3e bd 92 3e 96 bd
       0.054345623 -0.11115096 -0.046569843 -0.07336153
0000c0 2c dc 10 3a 80 37 ec bd 67 9b 6c 3d d8 06 08 be
       0.0005525972 -0.11534023 0.05776539 -0.1328386
0000d0 75 ef 20 be 44 7c 0b be a7 64 43 bd 38 34 b5 bd
       -0.15716346 -0.13621622 -0.04770341 -0.088478506
0000e0 a6 b3 01 3d 86 2f 3c be 74 6b 9e bd 96 92 01 be
       0.031665467 -0.18377504 -0.07735339 -0.12653574

sequential_2/conv2d_5/Conv2D f4 [40, 4, 2, 1]
000000 65 d4 09 3f 64 88 03 3f f5 b7 4c 3f 30 01 59 3f
       0.53839713 0.5137999 0.79968196 0.84767437
000010 2f 9f 9f be a9 82 dd bd cf 1f a8 be de 77 1e be
       -0.31176135 -0.10815937 -0.32836768 -0.15475413
000020 63 0a b6 3f 57 59 2e 3e b7 e6 1c bf fc 1a 83 bf
       1.422192 0.17026268 -0.6128954 -1.024261
000030 36 b0 23 3f 5f 29 cb be 26 83 7c 3e 08 ac 89 be
       0.6394075 -0.3968 0.24659404 -0.26889062
000040 5a 5c 2f 3f d7 8a 4b 3f e6 f8 69 bf e4 c9 72 bf
       0.6850029 0.7950873 -0.91395414 -0.9483931
000050 b2 d4 0a 3e e9 68 e1 3c c9 94 ce 3d 3a ea 3a bd
       0.135577 0.027515845 0.10086972 -0.045633532
000060 f7 34 d0 be f3 eb 02 bf 1e bf 17 bf 73 61 17 bf
       -0.4066541 -0.5114128 -0.59275997 -0.5913307
000070 78 a5 3d bc 87 f5 38 bc 74 cb 3b be 8a 89 2e 3d
       -0.011575095 -0.011289007 -0.1833933 0.042611636
000080 65 1e 58 3f 1b 63 7d 3f 91 7e a0 bd be b2 15 3e
       0.8442138 0.9897935 -0.078366406 0.14618966
000090 5e 05 25 be 11 1e 01 be 60 b7 b1 be a4 8d f4 bd
       -0.16115329 -0.12609126 -0.34710217 -0.11941078
0000a0 fb 3c 40 be 88 5c 3a 3f d6 4e 7a bf c1 38 fe bd
       -0.18773262 0.7279744 -0.97776544 -0.12413169
0000b0 d6 2a 02 3e 27 a8 34 3f ca 6a 26 bf 1d 5e 27 be
       0.12711653 0.7056908 -0.650067 -0.16344495
0000c0 dd 52 dd be ce 0b fb be 05 a0 71 bd 3a 94 4c bc
       -0.43227282 -0.49032444 -0.058990497 -0.012486512
0000d0 a1 82 03 3f aa ca 05 3f b3 a5 99 be ab 1a c9 be
       0.513712 0.52262366 -0.3000923 -0.3927816
0000e0 8c 19 82 3f 76 15 7e 3f f8 d0 10 3f e5 8e 2c 3f
       1.0164046 0.99251497 0.5656886 0.6740554
0000f0 d6 42 3b be 0e 22 d0 bc 08 3e 87 be 18 4c 6e be
       -0.18287215 -0.025406864 -0.26414514 -0.23271215
000100 1b 5e 2d 3f 05 e3 3a 3f ac e1 3d 3f 7f 49 47 3f
       0.6772172 0.73002654 0.7417247 0.7784652
000110 7d d7 0a bf a8 57 bf be a8 b6 6f bd f0 6c b7 bd
       -0.5423506 -0.37371564 -0.058523804 -0.08956325
000120 16 82 a5 3f 4f 39 96 3f 82 41 91 be 7f 5d f6 be
       1.2930324 1.1736239 -0.2837029 -0.48118207
000130 10 59 e8 be a1 54 88 be 3e 77 86 3e 99 7c 1a 3e
       -0.4538045 -0.26627067 0.2626285 0.15086593
000140 09 0c 6d 3f 99 cc 3c bb a9 36 f0 3e 2b f3 3d be
       0.9259649 -0.0028808473 0.46916702 -0.18549792
000150 8b f5 e2 be 64 f5 3d bf 69 89 41 3f 5d 46 bc 3e
       -0.4432796 -0.7420256 0.75600296 0.36772433
000160 a1 77 d6 be a0 2b 42 bf 8f 09 fc 3c 0e c5 ef be
       -0.41888145 -0.75847816 0.030766277 -0.46830028
000170 a3 43 83 3e ff a2 90 3a f5 48 44 3e 11 8c 26 3d
       0.2563754 0.0011034905 0.19168456 0.04066092
000180 24 51 88 3f 3d 0f 17 3f b0 2e 9b 3f 61 19 55 3f
       1.0649762 0.59007627 1.2123623 0.8324185
000190 ab 89 5a bd a6 1e a4 bd 18 d7 0a be 43 1b c8 be
       -0.053353947 -0.08013658 -0.13558614 -0.390833
0001a0 d2 d6 4e bf 29 e8 5d be bf 0a 8d 3e 77 0f f0 3e
       -0.8079654 -0.21670593 0.2754726 0.468868
0001b0 a4 6a 9f 3d 59 7b d5 3e d0 28 0a bf fc ae e9 be
       0.07784012 0.4169567 -0.53968525 -0.45641315
0001c0 49 e3 0e bf 97 68 2e be 04 e3 02 bf af 26 b1 be
       -0.5581556 -0.17032085 -0.5112765 -0.34599826
0001d0 4c 37 92 be ef 45 35 3c ea 9c b1 be 76 0b 71 bd
       -0.28557813 0.011064037 -0.34690028 -0.05884882
0001e0 25 9f b4 be fc ac 5e bf 6c ab 8e 3e ea db e2 be
       -0.35277668 -0.86982703 0.2786516 -0.44308406
0001f0 eb 46 13 3f 72 6c 75 3d 8b 4e 0a 3f 54 21 09 3e
       0.5753009 0.059917875 0.540261 0.1339162
000200 eb b6 49 be 3d 4e 41 be 26 0f 28 be cf 6d aa be
       -0.19698684 -0.18877502 -0.16412029 -0.33286902
000210 45 48 80 3e 25 38 81 3e a6 9b 27 be ba 0b 0a bd
       0.25055137 0.25238147 -0.16367969 -0.03370259
000220 fc d5 81 bf a3 7b 3c bf 7d a0 29 3f 73 48 73 3f
       -1.0143428 -0.73626155 0.6626051 0.95032424
000230 e5 93 db be 9b 3c 35 3d 98 b3 5e be 8e c4 82 be
       -0.42886272 0.04424725 -0.21748197 -0.25540584
000240 7c c2 a8 3e 0c fd 7a bd 0a 8a 7d be 0b fa 09 bf
       0.3296088 -0.06127648 -0.24759689 -0.5389716
000250 e9 c7 91 3e ce c6 29 be 26 7d 64 3e c5 79 b5 3c
       0.28472832 -0.16579744 0.22313365 0.02215279
000260 ae 0d 39 bf 95 0b f1 bd 17 44 29 3e a8 b3 64 3f
       -0.722865 -0.11769787 0.1652988 0.89336634
000270 c5 12 01 bf 58 5d c3 3e be 24 bd bd 46 2b 2b 3e
       -0.50419265 0.38157153 -0.09235524 0.16715726
000280 27 b7 e6 3e 6b 6e 96 3e c3 6b b8 3e 27 f2 eb 3e
       0.4506161 0.29381117 0.36019716 0.46083185
000290 93 ff ab 3b aa d8 1a 3e d2 3c 77 3d 96 de b7 3d
       0.0052489727 0.15121713 0.060360737 0.08978002
0002a0 de ec 73 3d d1 48 03 3d 77 65 cb be 1a 14 58 be
       0.059552066 0.032051865 -0.3972585 -0.21101418
0002b0 55 29 b6 bd d7 9a 5b 3e 28 5c a3 3d 1b 95 93 bd
       -0.08894602 0.21445785 0.07976562 -0.07206174
0002c0 8b e8 39 3f f6 af 04 bf 66 bc a2 3e e4 c5 4e bf
       0.7262046 -0.51830995 0.31784362 -0.8077071
0002d0 f1 43 32 3f c3 dc ed be 32 07 10 3f 3e 25 0e bd
       0.6963492 -0.4645749 0.5626098 -0.034703486
0002e0 0c 73 30 3f 70 ea 4e be 01 b0 04 bf d2 e1 93 bf
       0.6892555 -0.20206618 -0.5183106 -1.155329
0002f0 a6 47 8e 3f 44 be 2f 3f 15 30 4e be fd 3e 2e bf
       1.1115615 0.686497 -0.2013553 -0.6806486
000300 83 c0 93 be 97 0b 71 bf a5 43 99 3f 5e a6 3e bc
       -0.28857812 -0.9415831 1.1973768 -0.011636345
000310 c9 dc a0 3e 1f 3c 5f be c5 cc 01 be 0b ab 96 be
       0.31418446 -0.21800278 -0.1267577 -0.2942737
000320 ad 71 1b 3f 7e f2 26 3f b8 be 84 3e 9b ec 93 3e
       0.6072033 0.65213764 0.25926757 0.28891453
000330 65 bf d2 3e e1 4e 07 3f 67 cc e4 3d 7c 94 f5 3d
       0.41161647 0.52854735 0.11171799 0.11991212
000340 09 f7 4c 3f c7 d3 53 3f 7d 24 cc ba 73 d1 26 3e
       0.80064446 0.8274502 -0.0015574839 0.16290836
000350 31 61 d7 be b6 24 ca be 25 ad 82 be a1 93 ae be
       -0.4206634 -0.39481133 -0.25522724 -0.34097007
000360 54 a9 44 bf 47 45 53 be 2d 16 bb be af 81 17 3d
       -0.76820874 -0.20631896 -0.36540356 0.03698891
000370 45 be 0c 3e 83 78 ff 3e ea 43 92 3d 5d 73 ad bb
       0.13744457 0.4989663 0.0714186 -0.0052932934
000380 d7 30 8a be 42 69 28 bf 93 6e 27 3e 62 e3 21 bf
       -0.26990387 -0.6578561 0.16350774 -0.63237584
000390 b1 5b 5b 3f 3e 0c bb 3e 73 fc ba 3e ab 04 cb bc
       0.85686785 0.36532778 0.36520728 -0.0247825
0003a0 f0 7b e9 be f5 8a cd be 57 51 00 3f 75 e4 92 bd
       -0.4560237 -0.40145078 0.50124115 -0.07172481
0003b0 2c 30 49 3f 3b 1b 9b 3e 4a fb 93 3e 48 0f 46 bd
       0.7858913 0.30294213 0.28902656 -0.048354417
0003c0 22 e7 7a 3e 01 66 bf 3e d8 1f 0f 3f 88 4d c7 3e
       0.24502233 0.3738251 0.55907965 0.3892634
0003d0 9e ca c8 bd b0 29 3d bd d0 33 29 3e 3f b8 c7 3d
       -0.09804271 -0.046182334 0.16523671 0.09751939
0003e0 d7 61 da be e2 d9 91 3b f5 ef 20 bf 9a 10 a7 be
       -0.4265277 0.0044510225 -0.62866145 -0.32629853
0003f0 03 ee e6 be f6 09 3f be 4c 1c 11 3e fb 53 40 3d
       -0.45103464 -0.18656144 0.1417095 0.04695509

sequential_2/conv2d_6/Conv2D f4 [40, 4, 2, 40]
000000 e8 c8 f8 bc 94 d7 36 be 51 63 2c be 9c 31 33 3e
       -0.030369237 -0.17855674 -0.16834761 0.17499393
000010 14 57 0e be 19 db e9 3d 48 41 8d 3e aa 75 11 be
       -0.13900405 0.11418743 0.27588868 -0.14205042
000020 90 4b 50 be 99 ad cf be c1 99 c6 be b7 eb 17 3e
       -0.20341325 -0.40562132 -0.3878918 0.14836012
000030 78 80 66 3d 35 97 85 3e e9 a3 f1 3d ce 5c 00 3e
       0.05627486 0.26091924 0.117988415 0.12535402
000040 b3 49 d1 3d f0 e4 56 3e 25 33 b2 3c 63 8e ac 3d
       0.10219135 0.2098577 0.021752903 0.084255956
000050 0d ef 9f 3d 10 a7 a0 3d 31 06 02 be 7a ff bb 3d
       0.07809267 0.07844365 -0.12697674 0.09179588
000060 d2 de c1 3d ab cc ec bb 99 fa 44 be e7 65 86 3e
       0.09466328 -0.0072265468 -0.1923622 0.2624962
000070 88 a5 a9 3d 7c 52 60 3c a4 67 19 be 0e 0c 75 bd
       0.08283526 0.013691541 -0.14980942 -0.05982595
000080 08 70 8c bd 5a af f7 bd 0e 7c 82 bd 9f 4d ac bb
       -0.06857306 -0.120939925 -0.06371318 -0.0052582766
000090 7c db 5d 3e 0e 92 5e be 92 e6 a9 3d 25 42 25 bd
       0.21665758 -0.21735403 0.08295931 -0.040346283
0000a0 98 2f 92 bd 5c e4 98 be 0a 42 20 be 1c 36 3d 3d
       -0.07137984 -0.29861724 -0.15650192 0.04619418
0000b0 cb e7 f9 bd 03 e9 fe bc ec ee 75 3e ab 55 d6 bc
       -0.12202414 -0.031116968 0.24016923 -0.026163897
0000c0 0a e6 f7 bc 0f 6d f3 be 94 97 94 be 13 aa 9e 3c
       -0.030261058 -0.47544143 -0.29021895 0.019368207
0000d0 68 2b 78 3d 03 01 85 3e 70 80 ba 3d 7b b9 70 3e
       0.06058827 0.25977334 0.09106529 0.23508255
0000e0 cd ba a3 3d a3 78 a0 3e 5c 4c 8c bd 50 0f 5f bc
       0.07994614 0.3134204 -0.06850502 -0.013614491
0000f0 fa 6d 5a 3d a3 cd 61 3d a4 05 de 3c 05 be 6d 3e
       0.053327538 0.05512775 0.027102299 0.23217018
000100 a9 c6 2d 3e 99 88 2f 3d cf 7e 63 be 6f 70 15 3e
       0.16970314 0.04285488 -0.22216342 0.14593671
000110 67 23 ac 3d 0a 71 29 3d 0d b3 d7 bd 86 93 f4 bd
       0.0840519 0.041367568 -0.10532198 -0.119422
000120 8d a6 b3 bd 0c 23 0c be 1b 14 5f be f4 0c 39 3d
       -0.087720014 -0.13685244 -0.21785013 0.04517837
000130 12 40 56 3e bf d7 82 be ea fc 56 3d 87 1c fe bc
       0.20922878 -0.25555226 0.05248729 -0.031019462
000140 59 dd d0 3d 10 dc 22 bb 0d 4a 73 3c 53 a5 d1 bd
       0.10198469 -0.0024850406 0.014849198 -0.10236611
000150 e7 ce 2b 3e b4 a2 67 bd ed d1 e6 bd 7f 3c 8a 3e
       0.16778146 -0.05655165 -0.11270509 0.2699928
000160 28 52 29 3e e6 21 b2 3e 33 c7 8a 3e b9 73 f7 bc
       0.16535246 0.34791487 0.27105102 -0.030206548
000170 2f a5 dd 3d bd ad eb bc 49 3e 1e bd 50 8f 0c be
       0.10822522 -0.028769368 -0.03863362 -0.13726544
000180 e9 3e 21 be 98 19 bf 3b 20 60 88 3d 31 46 56 bd
       -0.15746655 0.0058319084 0.066589594 -0.052313033
000190 c4 88 f2 3d 7c 77 3d bd 78 42 40 3d f4 cc 25 be
       0.11842492 -0.046256527 0.04693839 -0.16191465
0001a0 f3 66 0a be 4c be c1 3d 34 d2 3d 3e 1b 66 69 bd
       -0.13515835 0.094601244 0.18537217 -0.05698214
0001b0 8d 93 34 be ca 01 c2 bd 41 70 2d 3e 76 46 32 3c
       -0.17634411 -0.094729975 0.16937353 0.010881057
0001c0 1a 01 90 3e 8c 27 d0 3d ac de 50 3e 04 cb 31 bd
       0.2812584 0.10163793 0.20397443 -0.0434065
0001d0 a8 91 b6 bd 0e a6 07 3d 44 1a d7 bd fe db 0d be
       -0.089145005 0.033117346 -0.10503057 -0.13853452
0001e0 d7 11 0e 3e eb 7b ab 3d 2b 00 30 bd e7 e4 d8 bd
       0.13873993 0.08373245 -0.04296891 -0.10590535
0001f0 24 47 6a 3e 28 76 df 3c 14 13 ec bd b7 8b 80 3e
       0.228787 0.027278021 -0.11527076 0.25106594
000200 f9 9e ad 3e 02 e1 ce 3e 41 c7 9a 3e 03 b2 ee bd
       0.3391035 0.40406042 0.30230144 -0.11655047
000210 ae 3b 85 3e 20 53 9f 3d fb 2a c0 bd 64 2d d8 bd
       0.26022094 0.07779527 -0.09383198 -0.105555326
000220 f7 c3 46 bd 14 8d 6d bd 02 a0 09 be 24 4c ef bb
       -0.04852673 -0.05799587 -0.13439944 -0.007302778
000230 86 38 6b 3d de aa 85 bc c0 a4 92 bd 9a 10 5a be
       0.05742695 -0.016316827 -0.0716033 -0.21295395
000240 de 53 8e bd 16 af e0 3d 8b 9e e3 3e f3 4a 13 be
       -0.0694959 0.10970895 0.44456896 -0.1438406
000250 73 45 26 bd 01 f3 12 be 71 b7 10 3e 6b 1b f7 bd
       -0.040593576 -0.14350511 0.14132477 -0.120657764
000260 99 d0 82 3e 58 9b 83 3d 57 25 61 3e 82 0b 02 be
       0.25549772 0.06426114 0.219869 -0.12699702
000270 3e 4f 10 bb 7b f7 43 3e 24 b4 f7 bc 0f 44 03 bc
       -0.0022019888 0.19137375 -0.030237265 -0.008011832
000280 8f 9d 3a 3d 9c 65 81 3e 8a c1 9c 3e ad 65 15 be
       0.045560416 0.25272834 0.3061641 -0.14589567
000290 fb fa af 3d 83 eb 1e 3e 3b e3 d2 bd 19 d9 25 3d
       0.085927926 0.15519528 -0.10297247 0.040490244
0002a0 87 ee 8c 3c 9c 12 83 3e de ee 98 3d 88 30 98 bd
       0.017203582 0.25600135 0.07467435 -0.074311316
0002b0 6d cf b2 bc dc f2 21 be 6d f4 18 be a1 93 77 bd
       -0.021827424 -0.158153 -0.14936991 -0.060443524
0002c0 26 d6 1d be f3 81 5a be b3 fd 5b bc 80 fa 82 3d
       -0.15413722 -0.21338634 -0.013427186 0.06395435
0002d0 f0 07 a1 3d 5c 3c 1e be 3e 6d 29 3d e0 17 ac 3d
       0.07862842 -0.15452713 0.041363947 0.08402991
0002e0 38 8e f4 bc 03 4d 08 3e 52 fd 0b 3e a0 30 3f be
       -0.029852971 0.13310628 0.13670853 -0.18670893
0002f0 6b 09 3d bc a3 54 c7 3d 51 8b e9 3d 27 50 a5 3d
       -0.01153789 0.0973294 0.114035256 0.080719285
000300 34 8d 39 3c 1b 12 f3 3d 7f d2 04 3e b6 b6 12 3e
       0.011325169 0.11868688 0.12970923 0.14327511
000310 9f c8 b0 bd fe 0a ad 3e 5a e3 00 bd 51 a1 e4 3d
       -0.086320154 0.3379745 -0.03146682 0.11163581
000320 15 26 c4 3d e5 85 52 3e d1 13 65 3e 96 81 2f be
       0.09577576 0.20558889 0.2237084 -0.17139277
000330 93 02 80 3e 30 9f 45 ba 21 31 88 be 82 fc 45 3e
       0.25001964 -0.00075386744 -0.26599982 0.19334605
000340 57 54 2b 3d 89 de a7 3e 7b dc 75 3e 3e 61 52 be
       0.04182848 0.32786968 0.24009888 -0.20544907
000350 d0 52 c3 3d 88 25 52 be 2e f7 e5 bd f2 1e fa bd
       0.095372796 -0.2052213 -0.112287864 -0.122129336
000360 98 3b fc bd 57 51 8d be 0c bd 64 bd 91 7e 7f 3d
       -0.12316054 -0.2760112 -0.05584435 0.062376563
000370 65 9c 27 3c 0d 16 97 bc 71 b5 d6 3c c2 42 c0 3d
       0.010230158 -0.018443132 0.026209565 0.09387733
000380 2c f8 6f be a1 76 17 3e 55 92 9b 3e 60 3c 11 be
       -0.23434514 0.14791347 0.3038508 -0.14183187
000390 c0 48 92 3c 8f eb 99 3d bb c3 b8 3d a7 2a a3 3d
       0.017856956 0.07515632 0.090217076 0.0796712
0003a0 f3 fd 0d 3e 7b 71 33 3e a4 89 5a 3d 1c 5b 8e bd
       0.13866405 0.17523758 0.05335392 -0.069509715
0003b0 2f 21 31 be 4f 08 6b 3e 2d 97 a5 3c 92 5f 51 3d
       -0.17297815 0.22952388 0.020213688 0.051116534
0003c0 16 c2 02 be d2 3b d4 bd 23 8d de bd 1e 94 e9 3d
       -0.1276935 -0.10362972 -0.108667634 0.11405204
0003d0 0f bc 78 be ff e2 8b bd 47 ba dc 3d f0 74 57 be
       -0.24290489 -0.068304054 0.10777717 -0.21040702
0003e0 b9 2f 65 be a9 3e 89 be 47 d3 64 be dd 8a 07 3e
       -0.22381486 -0.26805618 -0.22346221 0.13236566
0003f0 6a 4a a6 bd bb aa 0b 3e 43 cc 30 3d 50 2b c6 3d
       -0.08119662 0.13639347 0.04316355 0.0967623

sequential_2/conv2d_7/Conv2D f4 [50, 4, 2, 40]
000000 7e 21 f4 bd c6 60 2f 3e 5a ad 35 bd 0b 5f ed bc
       -0.11920451 0.1712676 -0.044354774 -0.028975984
000010 ce 88 33 be 2e 9b 8b 3e 0a 1a 51 3c d0 15 7a 3e
       -0.17532656 0.2726683 0.012762556 0.24422383
000020 3b a0 52 3e 38 33 2d 3e 2b 2c ca bd 6a de 3e be
       0.20568936 0.1691407 -0.098717056 -0.18639532
000030 f6 44 39 be 75 9a 13 3c 8e 45 c8 3d 74 54 8a 3d
       -0.18092713 0.009008993 0.097788915 0.067543894
000040 34 0d b4 3e 15 c3 de 3d 31 4f 32 be 91 3a 84 be
       0.35166323 0.10877053 -0.17413022 -0.25825933
000050 88 ca a3 bd af bf ee 3d c7 a5 d9 bd 65 7d b7 be
       -0.07997614 0.116576545 -0.10627323 -0.35837856
000060 8e f7 b2 bd 9f e1 b1 3e 13 f8 01 3e 86 d5 33 3d
       -0.087386236 0.34742448 0.12692289 0.043904804
000070 31 5b 75 3e 01 ec 94 bd 5e 47 18 3e b1 77 c6 3d
       0.23960568 -0.07271577 0.14870974 0.09690798
000080 3c f9 06 3d fe be a6 bd 4e 50 50 3d f5 e0 d1 bc
       0.032952532 -0.081418976 0.050857835 -0.025619963
000090 b8 bc b0 bb 79 31 5a 3e 38 60 94 ba ad 93 1e 3e
       -0.005393591 0.21307935 -0.0011320179 0.15486021
0000a0 d9 9a a6 3d 28 16 74 3e 2e 7e 8f be 10 c4 db bc
       0.081350036 0.23836577 -0.28025955 -0.026826888
0000b0 ae e4 18 3c 4b f0 f9 3d 21 3c a6 bd 3e 93 0c 3e
       0.009331865 0.12204035 -0.081169374 0.13728043
0000c0 68 1f c7 bc 3e 5a e9 3d 44 23 73 be 04 75 2f be
       -0.024306968 0.113941655 -0.23743922 -0.17134482
0000d0 fb cc 08 be 1f 61 05 3d 1a 9b df bd bd 74 18 3e
       -0.13359444 0.032563325 -0.10918255 0.14888282
0000e0 f5 5a 76 3e 5d 79 07 be 1a 8a 92 bd 41 42 66 be
       0.24058135 -0.1322989 -0.07155247 -0.22486211
0000f0 c5 26 91 3d bf 1b 5f 3e a7 77 8b be 6e 45 94 be
       0.07087473 0.21787928 -0.27239725 -0.2895922
000100 9b 72 6a 3e fb e9 23 3d b6 a7 49 bd 49 e4 44 be
       0.22895281 0.040018063 -0.049232207 -0.19227709
000110 79 3a c5 3d de 3d 4b 3e f5 4b fb 3d 70 67 ab 3b
       0.096302934 0.19847819 0.12270347 0.0052308366
000120 c0 b7 08 be a9 0a c6 3d 59 4a 6e 3c 83 a9 6f bc
       -0.13351345 0.09670002 0.014544093 -0.014627817
000130 94 a6 cc bd 30 30 60 3d c0 88 04 bd fe d0 49 3d
       -0.0999271 0.054733455 -0.032356977 0.049271576
000140 53 65 3e bd e2 de a8 3d 1c 4f 65 be 83 67 11 3e
       -0.04648335 0.082456365 -0.22393459 0.14199643
000150 a6 c3 f3 bd 26 ab 85 3e fb 34 35 3d e1 d4 82 3e
       -0.11902551 0.26107138 0.04423998 0.2555304
000160 31 da 0a 3d 41 10 0d 3d ab 5a 1c 3c d3 a2 96 3d
       0.03389949 0.03443933 0.009543101 0.07355275
000170 c9 14 f4 bd c6 ca ee 3d 83 a5 15 3e e3 10 36 3e
       -0.11918027 0.1165977 0.14613919 0.1777988
000180 e9 c0 c0 bc 9e 27 4d 3e 77 d3 bc 3d 86 65 ea 3c
       -0.023529487 0.20034644 0.09220021 0.028612863
000190 d2 f6 b7 3c 37 07 36 bd 7b ec cf 3d 7e 4b 9a be
       0.02245656 -0.044440474 0.10152527 -0.3013572
0001a0 a0 03 35 be 19 b0 35 3e 36 59 e3 3c b2 35 65 be
       -0.17677164 0.17742957 0.0277525 -0.22383764
0001b0 57 01 a1 3e 3e ad c7 bc 45 4e 93 38 b9 9c fa 3d
       0.31446335 -0.0243746 7.024085e-05 0.12236924
0001c0 7f ae 54 3e 4f 25 89 3d 3d ba 79 3e d0 a1 73 3c
       0.2076969 0.06696569 0.2438745 0.014870122
0001d0 2c 67 84 3d 0c 7c b8 3d a5 ec e7 bb 93 cb c2 3c
       0.06464991 0.09008035 -0.007077771 0.023778712
0001e0 89 eb 2f 3d 15 49 aa 3d a1 47 a5 be c0 66 03 3e
       0.042949233 0.083147205 -0.3228121 0.12832165
0001f0 a9 19 09 3e b2 5d 6a 3e 72 d4 43 3a f7 52 a5 bc
       0.13388695 0.22887304 0.00074703165 -0.020181162
000200 6d 14 92 bd b5 32 a0 ba 26 8f 3a 3a 2f ec 28 3d
       -0.07132802 -0.0012222143 0.00071166677 0.041240867
000210 41 de 24 bd 64 57 46 bc e3 b8 c8 bb 5c ac 4e 3e
       -0.04025102 -0.0121057965 -0.006125556 0.20182937
000220 86 ee 54 bd f0 fd b7 3d 87 f3 d4 bd cc 9c 51 bc
       -0.051985286 0.089839816 -0.10398012 -0.012793731
000230 32 4d e4 3d 17 fc 18 3e f1 d8 22 bc d8 04 62 be
       0.11147536 0.14939915 -0.009939418 -0.2207216
000240 4b 66 fe 3d 42 90 23 3e 26 78 72 3d af 4e ad be
       0.124218546 0.15972999 0.059196614 -0.33849093
000250 0b cd 02 3e b7 08 84 3e 5c 7b 67 bd 04 48 80 3d
       0.1277353 0.257879 -0.05651413 0.06263736
000260 96 e6 c2 bc 86 36 52 3e 86 aa 69 3c 54 7b 6b 3d
       -0.023791593 0.20528612 0.014261847 0.05749066
000270 cb cb 43 bd ca 56 ad bc f2 66 bb 3d aa 4a 7c 3d
       -0.047801774 -0.021159548 0.09150495 0.061594643
000280 91 c1 40 bd 63 ab 84 bd f0 37 89 bd 81 02 c9 3d
       -0.0470596 -0.06478002 -0.06700122 0.09814931
000290 ad 2e 11 be d3 20 c9 be e6 7b 06 3d e5 3d 2d 3d
       -0.14177962 -0.39282855 0.032833003 0.042295355
0002a0 e6 43 c9 bd 44 21 5d bd 6d 03 dc bd 1a 5d 18 3e
       -0.09827404 -0.053986803 -0.10742841 0.14879265
0002b0 8e 86 81 be bd c7 cf 3c bc 74 51 3e 54 bb 95 3d
       -0.2529797 0.025363797 0.20454687 0.07311121
0002c0 39 91 81 be a5 b0 7b 3e bf 66 c9 3d e1 ab 95 bd
       -0.2530611 0.24579103 0.098340504 -0.07308174
0002d0 2b 7a 4e be b1 61 fd bd f3 90 88 bd 4d a5 53 3d
       -0.20163791 -0.12372149 -0.06668272 0.051671315
0002e0 14 84 fd bd 61 0b 89 3d 08 4d 0e bd c0 30 ea 3b
       -0.123787075 0.066916235 -0.03474143 0.0071469247
0002f0 02 44 83 3e 4a 71 f0 bd 12 2d 11 bd f9 3b 8d 3e
       0.25637823 -0.11740358 -0.035443373 0.27584818
000300 73 62 a3 3d b9 34 ff bd 9e 50 88 3c 27 9c d6 3d
       0.07977762 -0.12461228 0.016640004 0.104790024
000310 ca ba 70 3e f9 c3 e6 bd d9 8f 92 3b 8a 8e c0 3c
       0.23508754 -0.112678476 0.0044727144 0.023505468
000320 6a 80 8a 3e fc 5c e7 3d d1 77 51 be 80 04 37 3e
       0.27051097 0.11297032 -0.20455863 0.1787281
000330 b2 a0 82 bd ea a3 ae be e8 8a 7a be b3 af 44 be
       -0.063783064 -0.34109432 -0.24467051 -0.19207649
000340 73 da 99 bd a1 18 40 be d0 80 10 be 8d bb 1d be
       -0.07512369 -0.18759395 -0.14111638 -0.15403576
000350 a6 c5 62 be 7b bf 16 be af c1 1c bd 31 c1 73 3d
       -0.2214571 -0.14721482 -0.03827065 0.059510414
000360 38 bb 1d be b3 45 10 3c f8 2f db bc 99 e0 83 be
       -0.1540345 0.00880568 -0.026756272 -0.25757292
000370 de 20 02 be ca 21 8d bd e1 d7 55 be d4 32 fd bb
       -0.1270785 -0.068912104 -0.20883133 -0.0077270065
000380 90 83 79 3e be 11 f8 3c 7d 31 ad be bf 04 b4 3c
       0.24366593 0.030281898 -0.3382682 0.02197492
000390 1b be 71 3d da ca 60 3e 8b 9a d8 bd 06 fe fb 3d
       0.05901919 0.21952382 -0.10576352 0.123043105
0003a0 25 5c 1b be 44 db 6c 3d e6 11 d7 bc 1f f3 1e bd
       -0.15171869 0.057826295 -0.026253652 -0.038806077
0003b0 e0 91 4d 3e 3d 1b 7f bd 2d 45 0f be 44 d5 6c bd
       0.20075178 -0.062281836 -0.13991232 -0.057820573
0003c0 b9 4a 89 be 75 14 85 bc 70 f5 66 be 75 d8 1f 3e
       -0.2681482 -0.016245106 -0.22554564 0.15609916
0003d0 24 35 80 be 68 3b 35 be fb ae 00 bd 96 9f 6c 3d
       -0.25040543 -0.17698443 -0.031416874 0.05776938
0003e0 e3 20 1e be 94 4a 4f be 53 5e af 3d 1c 4c 77 3e
       -0.15442233 -0.20243293 0.08562913 0.24150127
0003f0 fc 84 4a 3d f7 ba bb 3d 8b 2f 26 3e 06 96 16 be
       0.04944323 0.0916652 0.16229074 -0.14705667

sequential_2/conv2d_8/Conv2D f4 [50, 4, 2, 50]
000000 6a 2e fe 3d 57 15 e1 bb 86 f8 a5 be 62 08 63 be
       0.124111965 -0.006868999 -0.3241617 -0.22171167
000010 da 29 51 bd ee e5 0e 3d bc ca 66 3e 06 ef 4c bd
       -0.051065303 0.034887247 0.22538275 -0.050032638
000020 74 cb 71 3d a4 36 ad bd ee 19 ae 3c 8e be f1 bd
       0.05903192 -0.084576875 0.021252599 -0.118039235
000030 ce a7 8b bd e8 8d 84 3e 5d 2a 0e 3d 69 ee 99 3d
       -0.068191156 0.25889516 0.03470837 0.07516176
000040 05 8c 54 bd e4 44 3b 3e ff 14 6c bd 7e a9 2f 3e
       -0.051891346 0.18287998 -0.05763721 0.171545
000050 c6 bd 06 3d 33 25 8e 3e 4e c1 f3 3b c0 61 93 bc
       0.032895826 0.27762756 0.007438815 -0.017990947
000060 03 57 24 bd ba e2 f6 3d 80 89 09 be c9 21 98 be
       -0.040122043 0.120549634 -0.13431358 -0.29713276
000070 a8 d3 6c bd 26 a8 fe 3d 67 4f a2 3d c9 b9 bb bd
       -0.05781904 0.124344155 0.07925301 -0.09166295
000080 d1 25 ee bd 71 75 ec 3d 77 4b 03 3e 0e 3d 8c be
       -0.11628307 0.11545838 0.12821756 -0.2739033
000090 19 33 b3 bd df cf 05 be 0d 5e 7c 3e e1 e5 a7 bc
       -0.087499805 -0.13067578 0.24645253 -0.020495357
0000a0 2b 12 19 be 1e 85 7d 3e 86 e3 21 3e 42 7d b3 3d
       -0.14948337 0.24757811 0.1580945 0.087641254
0000b0 26 08 b0 3d 49 e3 db bd 4f f3 fc 39 5f 5a 5a be
       0.08595304 -0.107367106 0.00048246465 -0.21323536
0000c0 ca 05 2a 3e 71 23 8b 3e 35 46 47 bd 2a 9d 96 3d
       0.16603771 0.27175477 -0.04865094 0.073541954
0000d0 fb a9 b3 3d d6 94 a0 be 1c da 2b be 76 4e c3 bd
       0.087726556 -0.31363553 -0.16782421 -0.095364496
0000e0 d8 75 ae bc aa b3 d0 bd 72 f9 f0 3d f6 d9 18 3e
       -0.021296427 -0.10190518 0.11766328 0.14926895
0000f0 78 da 80 3e 5f 68 14 be 2e d9 43 be 35 e0 34 3e
       0.25166678 -0.1449294 -0.19125816 0.17663653
000100 46 a3 43 3e d5 37 1d 3e 53 9b 4c bd f0 97 0c 3d
       0.19105253 0.1535333 -0.049952816 0.034324586
000110 84 73 56 3e 39 bd 54 3d be 94 67 3e 98 2c 40 3d
       0.20942503 0.05193827 0.22615334 0.046917528
000120 64 60 5f 3d 02 25 43 3e 18 bd 1f bc 94 09 82 3d
       0.054535285 0.19057086 -0.009749673 0.06349483
000130 ee 5a 53 3d 0c 79 0c bd ee 7f d2 bd 08 c4 b4 be
       0.05160039 -0.034295127 -0.10278307 -0.3530581
000140 ca 82 4d be 23 de 6f 3d 67 39 81 3c c3 17 85 3c
       -0.20069423 0.058561455 0.015774442 0.016246682
000150 54 11 02 bc 44 00 c1 3d 95 b7 d4 3d 81 2a 8f bd
       -0.007938702 0.09423879 0.10386578 -0.06990529
000160 a5 d7 a5 bb 60 e7 8f be 8b d8 cb bd 2d 40 19 3e
       -0.005061107 -0.28106213 -0.09953412 0.14965887
000170 c8 e1 aa bd 91 98 a9 3d 7b d7 49 bd cb d8 c6 bd
       -0.083438456 0.08281053 -0.049277764 -0.09709319
000180 8d 34 c7 3d ad 41 a5 be 73 ac 3f 3e 2e b1 f5 3d
       0.0972682 -0.3227667 0.18718128 0.11996685
000190 13 d7 a1 bd 00 33 72 3d 3f 8d 51 be c9 4b 18 bd
       -0.0790235 0.05913067 -0.20464037 -0.03718165
0001a0 87 50 77 bd 0e 3b 9d 3d 1e 1a ee 3d 0d d5 01 be
       -0.06037953 0.076772794 0.11626075 -0.12678929
0001b0 46 b8 86 3e 39 c7 43 3d 9e 4a 18 be 64 7c 00 3d
       0.26312464 0.047797415 -0.14872214 0.03136863
0001c0 ee 37 1a bd 4e 82 07 3e 6a 83 17 3d e1 9e fc 3d
       -0.037650995 0.13233301 0.03699056 0.12334991
0001d0 36 45 8d 3d 9d 08 14 3e 8a bf b3 3d e5 70 21 3e
       0.068979666 0.1445641 0.087767676 0.15765722
0001e0 2c da 0c be 4d ff 6b 3e f1 e0 09 3d 83 11 85 3e
       -0.13755101 0.23046608 0.033661786 0.25989923
0001f0 c6 d4 d5 bc 5d 81 0d be 57 1f 6f 3e 50 9d 60 3c
       -0.026102435 -0.1381888 0.23351799 0.013709381
000200 dd f0 20 3e b2 e9 cf 3e a6 90 6a 3e 77 13 92 3d
       0.15716882 0.40607983 0.22906741 0.07132619
000210 f3 04 30 be 4d 6b b9 3d 85 36 0f 3e b5 de e5 be
       -0.17189388 0.09053669 0.13985641 -0.44896474
000220 d9 3e d8 3c 50 8f 7f 3c 1e 53 14 3e 3c f3 39 3d
       0.026397156 0.015598133 0.14484832 0.045397982
000230 df 89 4e bd 64 b2 cf 3d da c4 30 3e fd a1 1f 3d
       -0.050424453 0.10141447 0.17262593 0.038972843
000240 e6 26 98 3e 0b 9c 27 3e 91 53 16 3e b1 cc 0a bd
       0.29717177 0.1636812 0.14680316 -0.033886615
000250 73 6e 03 3e 9a f7 98 3d 88 65 f9 bd c4 ea 1d 3d
       0.12835102 0.07469101 -0.12177569 0.038553968
000260 07 06 4a 3e fc f9 21 be f8 e5 85 bc e5 d6 34 3e
       0.19728862 -0.15818018 -0.01634501 0.17660101
000270 96 d4 93 bd 90 cd 15 be ef cf 52 3d 50 7b 0d 3e
       -0.07218282 -0.14629197 0.051467832 0.13816571
000280 b9 14 85 3e 54 9b 0f bd 67 ea 65 be e2 a3 13 bd
       0.25992373 -0.03506024 -0.22452699 -0.036044963
000290 3d ea ce bc 8f fd 14 3d 8d 29 85 bd 86 be 91 bd
       -0.025258178 0.036374625 -0.06502066 -0.071164176
0002a0 9e 33 8d 3e 25 b0 91 3d 3a 19 95 bd 45 fa 7b 3c
       0.27578443 0.07113675 -0.07280202 0.015379493
0002b0 b5 a4 18 3d f1 01 96 3e 6b 23 19 be f9 23 bf bd
       0.037266452 0.29298356 -0.14954917 -0.09333033
0002c0 97 dd c6 3d 07 d1 66 3d 52 a8 4a 3e c3 ff 6c 3d
       0.09710234 0.056351688 0.19790772 0.0578611
0002d0 99 ef b6 3b 7c d9 ae 3d ce d2 16 be 97 35 9e 3c
       0.0055827615 0.085375756 -0.14728853 0.019312663
0002e0 99 a0 05 3d ee 15 15 bb 55 fa ae 3d c2 4b 62 bd
       0.03262386 -0.0022748667 0.08543841 -0.05524803
0002f0 d7 2c 4c bd 10 29 02 3e 38 94 1d be 90 d5 f2 3d
       -0.04984745 0.12710977 -0.15388572 0.1185714
000300 1b 1a 47 3e f3 69 40 3e 00 c9 dc 3d 80 f6 9a bd
       0.19443552 0.18790416 0.10780525 -0.075665474
000310 69 f8 57 3e 24 74 95 bd 5f 22 19 3d ca 08 77 3d
       0.21090855 -0.07297543 0.037386294 0.060311116
000320 01 6b 25 3d b1 2f ca 3d 86 79 01 be e0 86 2f 3e
       0.04038525 0.09872378 -0.12644014 0.17141294
000330 1b 1d 8a bd 1e b4 ae bc ff 54 df 3c 72 59 a2 bd
       -0.06743833 -0.021326121 0.027262209 -0.079272166
000340 d1 3c 57 bd cb 87 82 3b 53 84 73 3e 96 0f bd 3e
       -0.052548233 0.003983473 0.23780946 0.36925954
000350 2c c5 c0 3c c0 aa 3a 3d 20 be 12 3d d3 12 29 3e
       0.023531519 0.045572996 0.03582585 0.16511087
000360 cf 5a e5 bc 22 56 45 3e a7 5a 92 be d6 69 07 be
       -0.027997402 0.19271138 -0.28584787 -0.13223967
000370 9f 06 25 be 32 dd fa 3d 3c 75 92 3d 78 b5 68 be
       -0.16115807 0.12249221 0.07151267 -0.22725475
000380 cd ee 4d bd 9c dc 44 3d 31 a9 9d bd 82 97 2f be
       -0.050276566 0.048061952 -0.07698286 -0.1714764
000390 02 2d 57 3d 1d df 31 3d fd 25 0d 3e 2e 41 73 3e
       0.052533157 0.043425668 0.13784023 0.23755333
0003a0 18 48 46 bd ba 58 10 3e b9 b8 68 bc 9c 9a 05 bd
       -0.048408598 0.14096346 -0.014204198 -0.03261815
0003b0 a3 3f 1c bd e5 5a b6 3d 70 3c 22 bd 47 b9 e6 bd
       -0.038146626 0.089040555 -0.03960842 -0.112658076
0003c0 91 5c 09 3e 17 97 9e 3d 4a 74 ce bd 63 a5 14 3e
       0.13414218 0.07743662 -0.10080774 0.14516215
0003d0 7d f1 1d bd 06 e4 00 3e c5 3a 49 bd c9 8a 5e 3e
       -0.03856038 0.12586984 -0.049128313 0.2173263
0003e0 47 7e af bb 3d 6c 34 bb 47 15 1a 3d 6d e8 68 3d
       -0.0053556296 -0.0027530335 0.037617948 0.056862283
0003f0 9d e3 42 3e 1a 8b 0a 3d 08 db 7c bd a8 65 f6 bc
       0.1903214 0.033824064 -0.061732322 -0.03007777

sequential_2/conv2d_9/Conv2D f4 [60, 4, 2, 50]
000000 57 9b d6 be ec 54 84 3d 3c 19 36 be 4b b5 b1 3d
       -0.4191539 0.0646151 -0.17783064 0.08677157
000010 f9 94 91 3d 47 55 8a bd 2f a7 4b 3d 98 d9 5a bc
       0.071084924 -0.067545466 0.049719986 -0.013357542
000020 9e 1d aa 3d fc 3d b7 3c 1c 3c 7a 3a c0 2f fb bd
       0.0830643 0.022368424 0.00095457 -0.12264967
000030 4e 0b 9f 3d 8a 05 83 3e 3d 3b 97 3e a6 a2 b9 3e
       0.07765828 0.25590163 0.29537383 0.36256903
000040 e6 c3 92 bd 64 77 28 3d 41 a7 d1 3d 06 da 2e 3d
       -0.07166271 0.041129485 0.10236979 0.042688392
000050 26 74 16 3e 55 38 0e be d4 d3 11 be b0 f6 51 3e
       0.14692745 -0.13888676 -0.14240962 0.2050426
000060 4e 68 37 be 87 e3 20 3e d7 3d ca 3d 6b b0 e4 bd
       -0.17910883 0.15711795 0.09875076 -0.111664616
000070 df 00 09 3e 99 e2 4e bd bd ba 1e 3c 99 4b d2 3c
       0.13379239 -0.05050907 0.009688077 0.025670813
000080 4b e8 cb bd 63 ff 22 be e6 52 29 3e 7b 66 74 be
       -0.09956416 -0.15917735 0.1653553 -0.23867218
000090 5b fb 54 3d b5 01 fa be de 37 8d 3e ea 9e 35 bd
       0.051997524 -0.48829427 0.27581686 -0.044341005
0000a0 40 e1 ba bd c0 99 60 3e 5d 8c 2e 3d dc 1d bb 3d
       -0.09124994 0.21933651 0.04261433 0.091365546
0000b0 7c 67 5d bc ad 40 06 be 99 a6 d7 bd 99 d5 c8 3d
       -0.013513442 -0.1311061 -0.10529823 0.098063655
0000c0 41 73 a2 3e 5e 6a b9 3c 34 af 7d bd 04 32 25 bd
       0.31728557 0.022633728 -0.061934665 -0.0403309
0000d0 db a6 3f be d8 9f f6 3d 87 4b e0 bd fc f7 d8 bd
       -0.18715994 0.120422065 -0.10951906 -0.10594174
0000e0 e9 fe 9f 3b fa fb 9c 3d 01 3d 26 3d 0c d6 c3 bd
       0.0048826826 0.07665248 0.04058552 -0.095623106
0000f0 c8 0f 0f 3d 85 4b 01 be 26 a7 53 3e 86 46 ee 3d
       0.03492716 -0.12626465 0.20669231 0.11634545
000100 e4 d7 a0 3d 2c 71 87 3e c3 1e 02 be 06 70 ba 3b
       0.07853678 0.2645353 -0.12707047 0.0056896238
000110 76 33 20 3d fd 49 59 3e 33 3e 39 3e 01 97 55 be
       0.039111577 0.2121963 0.18090133 -0.20858385
000120 ae f9 10 be 95 54 96 3e ca 45 40 be 09 1f 8e 3e
       -0.14157745 0.29361406 -0.18776622 0.27758053
000130 e2 9c b1 3d 1d 6a 97 bd d9 d2 5f 3e 82 34 e6 bd
       0.08672501 -0.073932864 0.21857776 -0.11240484
000140 a4 47 a5 bb de 7d 2f be b1 22 1c bd 3b 5c 08 be
       -0.0050439406 -0.17137858 -0.03811902 -0.13316433
000150 25 90 b0 bd 43 71 8b be 1f cb 04 bc 26 11 fc be
       -0.086212434 -0.2723485 -0.0081050685 -0.49231833
000160 1f fb 98 3d da 90 ad 3c 5e 27 0b be 6f fb 6c 3e
       0.074697725 0.021187235 -0.13589236 0.2314279
000170 69 b5 47 bc 30 08 bc 3d ae 3f 0a bd 87 e9 0f bd
       -0.012189248 0.09181249 -0.033752136 -0.03513482
000180 d4 92 23 be 56 46 6a 3e 02 3c 66 3e ca aa 6f 3d
       -0.15973979 0.22878394 0.22483829 0.058512487
000190 23 29 9c be e0 a3 4b 3d 9a f7 87 be 58 2f 95 bd
       -0.30500135 0.04971683 -0.26556093 -0.07284421
0001a0 d9 ca c3 bd 0e c8 05 3d 96 54 24 3e d7 15 13 3e
       -0.095601745 0.03266149 0.16047892 0.143638
0001b0 ef 0c 9c 3c fc 1b 49 bd 60 58 5c bd 42 ca c9 3d
       0.019049136 -0.049098954 -0.05379522 0.09853031
0001c0 7f 46 dd bd 6b 6e 01 3e 7f 37 05 3e 88 aa 90 3d
       -0.10804462 0.12639777 0.13009451 0.07063776
0001d0 6c 40 33 3d 33 71 8e 3e 48 7d 35 3e bd d5 56 bd
       0.04376261 0.2782074 0.17723572 -0.05244993
0001e0 56 29 1c 3d f4 9e 92 bc 3a 05 3e bd 8b 80 a1 bb
       0.03812536 -0.01789806 -0.046391703 -0.0049286536
0001f0 44 a7 93 3c c2 be 29 3e 79 03 46 3e f2 86 bc bd
       0.018024094 0.16576675 0.19337262 -0.09205426
000200 8a 1f 80 3d a1 fd cc 3d fb bd d8 3d 04 70 4b 3c
       0.062560156 0.100093134 0.10583111 0.012416843
000210 e2 ce 83 3d 52 f3 82 bc 47 fd 82 bd ae 0c 68 3d
       0.06435944 -0.015985165 -0.06395965 0.056652717
000220 30 56 b9 bd 68 08 5d 3c 40 a3 03 3e 28 88 e1 3c
       -0.09049642 0.013490774 0.12855244 0.027530745
000230 e1 e2 f2 3c 08 3b f7 bc d2 eb 94 3c 33 1d b0 3c
       0.0296492 -0.030179515 0.018178854 0.021498298
000240 63 33 4e bb 9d 10 39 bd b5 ea 61 bd a1 a4 11 be
       -0.0031463734 -0.04518186 -0.055155475 -0.14222957
000250 2a 76 07 3e 23 4c 20 bc cb da 0a be e3 06 a2 bd
       0.1322867 -0.009783777 -0.13560025 -0.0791147
000260 48 06 4b be a3 db a4 bd 55 7b 23 be 43 23 ad 3b
       -0.19826615 -0.08049705 -0.15965016 0.0052837445
000270 e2 3e f6 3d 34 36 e3 3b ad 7f 5d bd 0e 94 10 be
       0.12023713 0.0069339518 -0.05407684 -0.14118978
000280 b8 95 74 bb 0d e8 92 3d d4 0d 21 be 6b 56 cc 3d
       -0.0037320685 0.071731664 -0.15727931 0.099774204
000290 49 72 a4 bd 56 72 af 3d 47 bb 13 3e 0c 51 a0 3e
       -0.08029611 0.0856673 0.1442691 0.31311834
0002a0 b0 8a 57 3e 91 e6 96 bd ea d5 08 3d 1a 55 d8 3d
       0.21048999 -0.07368196 0.03340713 0.10563107
0002b0 bb cb 6e 3d 6c ac a5 3d 78 2c cf bd bb 3c 25 3e
       0.05829976 0.080895275 -0.101159036 0.16136448
0002c0 dc 07 86 3e e6 69 ba bc 43 80 23 3d 23 21 f3 bb
       0.2617787 -0.022755574 0.03991724 -0.0074197217
0002d0 a4 89 02 3e d7 90 84 3d bc 4f d1 3d b4 b2 2b be
       0.12747818 0.064729385 0.10220286 -0.16767389
0002e0 1a 61 05 3d 75 43 e4 3d ec 00 8d bc 1d c3 df 3d
       0.032563306 0.11145679 -0.017212354 0.10925887
0002f0 ed dc 9b bd 76 5d b9 bc 75 85 6e 3d bf 15 f7 bc
       -0.076104976 -0.022627573 0.058232743 -0.030161737
000300 c3 4e 0a be f8 92 f0 bc 7e e0 fe bd 5c 4b f6 bd
       -0.13506608 -0.029366955 -0.12445162 -0.120260924
000310 e8 8a 0f be c2 7c 29 3e 6c cf b5 3d 7d cd 8f bd
       -0.14017832 0.16551498 0.08877453 -0.07021616
000320 bf 09 9c 3d e5 64 5b 3d fc 4f b1 bd 7e 5b 80 bc
       0.076190464 0.053563017 -0.08657834 -0.015668627
000330 6c 22 a8 be 49 db 99 be 6c e0 af 3c 55 2f a7 bc
       -0.32838762 -0.30050114 0.021469317 -0.020408312
000340 f4 68 ab bd d0 16 e8 be 61 35 65 3c 6b 27 ab be
       -0.083696276 -0.45329905 0.013989777 -0.3342851
000350 f3 82 7f be 7c 1d b8 bd 41 4a 4f be 11 e6 95 bc
       -0.24952297 -0.08989999 -0.2024317 -0.01829818
000360 70 ae 1b 38 92 6c db bd 35 04 75 be 5e ab c0 bd
       3.7117337e-05 -0.107140675 -0.23927386 -0.09407686
000370 db 8b e3 be 7c c3 99 bb 77 98 14 be 90 65 11 3e
       -0.4444264 -0.004692493 -0.14511286 0.141989
000380 b3 bc d3 bd bb 9e ca 3c d2 d2 e9 3d bb 62 c1 3d
       -0.10338726 0.024733892 0.11417164 0.094426595
000390 9b 3c ca bd f8 35 e7 3d 05 31 51 3e 45 15 22 be
       -0.09874841 0.112895906 0.20428856 -0.15828426
0003a0 a8 57 83 bc 56 0a 9a 3d 5a 92 16 be c0 a1 15 bd
       -0.016033009 0.07521503 -0.14704266 -0.03653121
0003b0 76 c0 9d bd 33 47 c3 bd 99 b2 f2 be 80 89 6e bc
       -0.07702725 -0.095350645 -0.47401884 -0.01455915
0003c0 7e b0 fd bd 86 34 8d bd ee 6e 02 bd 4b 8f 66 3e
       -0.12387179 -0.06894784 -0.031844072 0.225156
0003d0 5f 83 e9 3c da dd ea bd 18 b5 fb 3d 88 23 e3 3c
       0.028505025 -0.11468096 0.122904 0.027726904
0003e0 c0 5e 20 3e 9e 22 ba bd bb d4 87 3d 0c e9 9d 3d
       0.15661144 -0.09088634 0.06632372 0.07710466
0003f0 fd cb 13 bd 05 c4 2f 3e b5 1c 79 be 53 5d 5f be
       -0.03608321 0.1716462 -0.24327357 -0.21812944

sequential_2/dense_4/BiasAdd/ReadVariableOp f4 [10]
000000 df f1 34 3d 89 4a e4 bd ec 2e 94 3d 9b 66 55 bb
       0.04417598 -0.11147029 0.07235512 -0.0032562378
000010 9a ea 6a 3d 08 b8 75 bc 73 0a 0c be 1b f5 9c 3d
       0.05735264 -0.01499749 -0.13675861 0.07663938
000020 e7 0b af 3d ff 5e 28 be
       0.08547192 -0.16442488

sequential_2/dense_4/MatMul f4 [10, 60]
000000 7b f1 80 be 3e 9c 89 3e 1a 42 db bd 87 76 60 be
       -0.25184235 0.26877016 -0.10705967 -0.21920215
000010 9a b0 23 3e 90 78 6b bd 5d d1 ef 3d 18 40 c3 bd
       0.15985337 -0.057488024 0.11709855 -0.09533709
000020 3f d0 7d 3e 58 86 c8 3e 10 7a 84 3e dc 4b ea 3c
       0.24786471 0.39164996 0.25874376 0.028600626
000030 a9 7a c5 3e 56 07 f2 be d2 a2 bd 3d b3 f5 cf bc
       0.38570145 -0.47271222 0.09259571 -0.025385713
000040 d1 c5 80 3e 4c 61 d9 3e 40 00 fd bd 5f 6f 76 be
       0.25150922 0.42457044 -0.12353563 -0.24065922
000050 64 ef 51 3e 9c ff af bd 5c d9 f2 bd 4d ce 30 bf
       0.20501477 -0.085936755 -0.11857864 -0.6906479
000060 fd 2d 80 3e e8 b7 82 3e 1c 96 b2 3e bc 27 a1 38
       0.25035086 0.25530934 0.3488015 7.684479e-05
000070 37 af 92 3e 06 f9 36 be d2 29 52 bf f8 01 0d 3f
       0.28649303 -0.17868432 -0.8209506 0.5508113
000080 dc 7b ea 3e fe 2b 20 bc 50 77 80 be 7f 8c a5 be
       0.45797622 -0.009776114 -0.25091028 -0.32333753
000090 77 68 d8 be ee 7d 84 3e 8a ae 6d bc be 7f 8a bd
       -0.422672 0.25877327 -0.014506945 -0.06762646
0000a0 6e 26 b0 3c 32 9c db bd d3 74 53 bb 5c 58 10 be
       0.0215027 -0.10723151 -0.0032265678 -0.14096206
0000b0 93 3c 47 be 66 af 18 3c 23 40 0c be 49 b7 28 bd
       -0.19456701 0.009319162 -0.13696341 -0.04119042
0000c0 18 7d 55 3e e9 ae c6 be 2c ba 22 bf 8c 9a 6b 3e
       0.208485 -0.3880532 -0.63565326 0.23008174
0000d0 26 10 eb bd cc 74 d0 3e 41 00 5d 3e 33 73 81 be
       -0.114776894 0.4071411 0.21582128 -0.25283203
0000e0 a2 d9 07 bf 30 12 46 3e 3a d2 27 3f c7 94 76 3e
       -0.53066456 0.19342875 0.65555155 0.24080192
0000f0 29 b0 dc 3e 9e 0f aa bd 8c fb a7 be f4 72 25 3e
       0.4310315 -0.0830376 -0.32809103 0.16157132
000100 92 f9 13 bf a2 78 20 bf fd d5 04 3e 17 68 05 bf
       -0.5780269 -0.6268407 0.12972255 -0.52111953
000110 ac 02 91 be f9 06 40 3d fe 2d 48 bd f2 e7 4d bd
       -0.2832235 0.04688165 -0.048871987 -0.05027003
000120 d7 8f dd 3d 41 14 9f 3e 5c 49 88 3e bc 41 96 3e
       0.10818451 0.3107014 0.2661847 0.29347026
000130 8e e0 90 bc d7 ed 02 3d 93 02 f9 be 64 d1 3c 3e
       -0.017685201 0.031965103 -0.48634776 0.18439251
000140 f5 d8 32 3e 62 d9 b5 3d 96 f8 26 3e 2a 96 e9 3e
       0.17465575 0.08879353 0.16305766 0.4562238
000150 a5 56 57 bd 6e 46 22 bf 5a 1b 54 bd 1f a4 42 3e
       -0.052572865 -0.6338872 -0.051783897 0.1900792
000160 26 1f 3f 3e 4a b3 4c 3e 39 cf 9c 3d 30 f1 93 be
       0.18664226 0.19990268 0.07656712 -0.2889495
000170 36 85 45 3e 01 43 2f be 3d da 07 bd dc 16 94 3e
       0.19289097 -0.17115404 -0.033167113 0.2892369
000180 d0 1b 6a 3e 78 6f 8b 3c 06 7e 1a be a7 ee 54 be
       0.22862172 0.017020926 -0.15087137 -0.20794164
000190 ee 83 26 3d c8 38 3a 3e db f3 a7 be 27 cb 6b be
       0.04065316 0.18185723 -0.32803234 -0.23026715
0001a0 06 22 8a be 61 e0 10 3d d1 1f 20 be 7a 94 7b be
       -0.26979083 0.035370234 -0.15637137 -0.24568358
0001b0 c7 08 14 3e ec d6 b9 bd 7e a2 52 bd fb 15 bc be
       0.14456473 -0.09074196 -0.051424496 -0.3673552
0001c0 91 72 1f 3e ac c1 1b be 64 33 7b be 37 7e 08 3f
       0.15571047 -0.15210599 -0.24531323 0.5331759
0001d0 63 a7 51 3c 60 e9 60 3e 35 e3 d6 3e 68 da a7 be
       0.012796256 0.21964025 0.4197022 -0.32783818
0001e0 99 b4 48 be 36 80 93 3e 29 e8 8e bd 56 8b 75 3e
       -0.19600143 0.28808755 -0.06977875 0.23978934
0001f0 ad 08 c0 3e dd 05 0f be a3 81 53 3d 82 7a 23 bc
       0.3750662 -0.1396708 0.051637303 -0.009977939
000200 c5 18 b0 be e1 6a 22 be 59 3b 8f be c3 5a 03 3f
       -0.34393898 -0.15861084 -0.27974966 0.51310366
000210 1f d1 55 3e af 31 80 bd e0 5e 21 be 10 3b 2c 3e
       0.20880555 -0.062594764 -0.15758848 0.16819406
000220 e8 14 29 3e 4a d0 f9 bc 39 b5 0b be b9 a3 58 be
       0.16511881 -0.030494828 -0.1364335 -0.21156205
000230 9c 6a 67 be b6 02 af bd 6d 16 f7 3d 2c bf ba be
       -0.22599262 -0.08545439 0.12064824 -0.36473978
000240 5e 8e b4 bd 66 93 58 be b3 0e 09 3e ae 10 d6 bd
       -0.08816217 -0.21149978 0.13384514 -0.104524
000250 3f 46 69 3e df c0 01 3f b2 93 08 3d 4f 8d 6f bd
       0.22780703 0.5068492 0.03334398 -0.05848437
000260 6f 8b ae bd e2 45 33 3d b4 cb b9 be 5e 6f 2d 3e
       -0.085226886 0.043767817 -0.36288226 0.16937014
000270 93 0f 29 3e d6 2e c9 3e f3 4d 96 bd 7c 0f 94 3d
       0.16509847 0.39293545 -0.073390864 0.07229516
000280 92 0a 1f be 19 08 2c be 98 43 13 be bc b4 d7 3e
       -0.15531376 -0.16799964 -0.14381254 0.42130077
000290 e2 6a 05 be 72 b8 9a bd 7a 58 20 3e 8e 77 32 be
       -0.13029054 -0.075547114 0.15658751 -0.17428419
0002a0 47 7e 25 3e 72 4c 98 bd 59 f4 f3 3d c2 bf 3a be
       0.16161452 -0.07436456 0.1191184 -0.18237212
0002b0 c7 3a 01 be 97 85 3b 3d 0f 4b 08 3e 49 4a 05 be
       -0.12620078 0.045781698 0.13309883 -0.13016619
0002c0 9c f9 d6 3d 6f bf 98 be 41 a2 92 be bb 72 b8 3c
       0.10496828 -0.29833552 -0.28639415 0.022515645
0002d0 4f 51 06 be fe 63 15 3e ac a4 07 3e 2c 7a 01 be
       -0.13116954 0.14588925 0.13246411 -0.12644261
0002e0 39 b8 c2 bd f4 4b e6 3b 96 9d a9 3e c6 8d c5 bd
       -0.09507794 0.0070280973 0.3312804 -0.09646182
0002f0 21 04 e2 3c fb ef 80 bd 6e a1 a3 3e a9 0a 2b 3e
       0.02758986 -0.06295773 0.319591 0.16703285
000300 a4 97 b1 3d f7 fc 81 be 59 d8 fd be 03 5b 68 be
       0.08671501 -0.2538831 -0.49579123 -0.22690968
000310 8c 46 28 be ea 03 da be 69 e1 0a 3d 1d 82 64 3d
       -0.16433161 -0.4258111 0.033906374 0.05578815
000320 cc de 3b 3e 92 fa b0 3e 93 4d fc be f9 cc 16 3d
       0.18346709 0.3456617 -0.49277934 0.03681657
000330 1a c7 9d 3e 5a ed 70 3d 52 63 9b be 3f 7f b0 3d
       0.30815965 0.058820106 -0.30349213 0.0861802
000340 0e 05 94 be 9d f1 c5 3e 50 fa ef 3d ff b7 a7 3d
       -0.28910106 0.386609 0.11717665 0.08189391
000350 92 f3 ac bd d2 a8 1e be ef 41 11 bf 5b a2 86 3e
       -0.08444895 -0.15494087 -0.5674123 0.26295742
000360 e5 31 9f 3e 6a c5 d7 be a3 53 d2 3e cc 56 88 be
       0.31092754 -0.42142802 0.41079435 -0.2662872
000370 22 a0 98 be 71 f5 75 3d a3 82 92 3e 3a 4b 08 3f
       -0.29809672 0.060048524 0.28615293 0.53239787
000380 72 e6 a9 be 95 38 d7 be 46 01 2a 3e 4d 6c 27 3e
       -0.33183628 -0.42035356 0.16602048 0.16349907
000390 9c ff 81 3e 47 a7 9c 3d 0a 9c 1b be 53 3b 55 be
       0.25390327 0.07649093 -0.15196243 -0.20823412
0003a0 3e 46 ba 3d 91 c5 5e 3e d7 b0 22 bd c6 89 06 be
       0.09095429 0.21755053 -0.03971943 -0.13138494
0003b0 60 68 50 bd ad 4a 5c be 04 51 a4 3e ce e7 eb 3e
       -0.05088079 -0.21512862 0.3209306 0.4607529
0003c0 fd 68 bd 3b a7 ab ca be 8f 06 9c 3e 47 79 63 3e
       0.005780338 -0.39584085 0.30473754 0.22214232
0003d0 dc 55 a4 bc a4 4e a2 bd 1f 3e 91 3e bb ec b4 bc
       -0.020060472 -0.07925156 0.28367707 -0.022085538
0003e0 a1 57 9e 3d 59 ff 55 3d 36 bc 1a bf 40 6b a1 be
       0.07731558 0.05224547 -0.6044344 -0.31527138
0003f0 d4 ae eb be 1d c2 ab bd 5c 72 5e be 0c 7e 85 3e
       -0.4603182 -0.083866335 -0.21723312 0.2607273
